pytorch_lightning/experiment_framework/results/exp_0/lightning_logs/version_3/checkpoints/epoch=49-step=4000.ckpt (torch, 432515 bytes, 35 tensors)

lstm_arch.weight_ih_l0 f4 [200, 6]
000000 b6 d7 8d be 8c 03 f9 bd 96 6b a2 bd 8f bb 64 be
       -0.27703637 -0.1215888 -0.07930677 -0.22337173
000010 18 d8 d7 bd b4 ad 5b be ec c4 75 3e 4e 8a 88 3e
       -0.105392635 -0.21452981 0.24000901 0.26668018
000020 85 1e 81 3e f8 f8 65 3e 54 c7 3c 3e f8 6d 89 be
       0.25218597 0.22458255 0.18435413 -0.26841712
000030 7f 23 8c be bb ac 7e be 95 bd 3e bd 93 cf 12 be
       -0.2737083 -0.24870579 -0.04656752 -0.14336996
000040 7c 48 13 be 6a d0 7a be 7b cd 4d be f3 4e 22 be
       -0.1438312 -0.24493566 -0.20097916 -0.15850429
000050 78 7b b6 be 13 db 2c be 91 31 ba be 42 48 ba be
       -0.35641074 -0.16880445 -0.3636594 -0.36383253
000060 99 f4 83 bd 24 ca e2 3c da e8 e1 bc 34 f0 86 3d
       -0.06443138 0.027684279 -0.027576853 0.06588784
000070 45 2b 09 bd 6b 60 41 bd 8e 8d 9c be 16 5b 9b be
       -0.03348853 -0.047211092 -0.30576748 -0.3034293
000080 bb e1 3a be 36 6f 7c be 5a b7 ac be 5f 9e a1 be
       -0.18250172 -0.24651799 -0.33733636 -0.3156614
000090 fd af 1f 3e 53 07 b7 3d 9b ae 19 3e b6 d0 32 3e
       0.15594478 0.08936944 0.15008013 0.1746243
0000a0 05 ce cd 3d 91 90 a8 be 10 dd b7 3d cd 23 d2 bd
       0.10049061 -0.32922795 0.08977711 -0.10260735
0000b0 7b f3 08 bd 05 9a 87 bd b1 bf f7 bd 17 90 61 be
       -0.033435326 -0.06621174 -0.12097109 -0.22027622
0000c0 51 4e 90 be 3a be 81 be a6 b6 35 be 01 8e 88 be
       -0.2818475 -0.25340444 -0.17745456 -0.2667084
0000d0 cc ab a1 be 4e 96 9d be 24 d3 ca 3d 5c 58 6b 3e
       -0.31576383 -0.30778736 0.09903553 0.22982925
0000e0 08 06 e3 3d e2 ae ad 3e 99 51 ae 3e d4 ec f3 bd
       0.11085135 0.33922487 0.3404663 -0.11910406
0000f0 ea f7 43 3e ee 01 a2 3d 1e ad a8 3d cd c4 4c 3e
       0.1913754 0.07910524 0.082361445 0.19996949
000100 fb 3a f1 3d 86 0c a1 bd 5f bd bd 3d d0 dd 12 bd
       0.11778828 -0.07863717 0.09264635 -0.035856068
000110 2b c3 1c 3d e1 48 c6 3d 03 7f 2b 3e b7 bb a2 bd
       0.038272064 0.09681869 0.1674767 -0.0794596
000120 8b dd e1 bc 50 05 8c be 58 35 6e bd 28 84 cb bd
       -0.02757146 -0.27347803 -0.05815634 -0.09937316
000130 e0 40 93 bd 98 f5 67 be 45 17 9a 3d 1e be e0 3d
       -0.07190108 -0.2265228 0.075239696 0.10973762
000140 31 46 82 3e d9 d3 62 3d 7d df 68 3e ef ef ec bd
       0.25444177 0.055377815 0.22741504 -0.11569201
000150 bd b8 e6 3d 55 eb b1 3d 56 98 36 3e c6 39 80 3e
       0.11265705 0.08687464 0.17831549 0.25044078
000160 cc c0 74 3d 70 49 f7 3d bc 94 cc 3d 26 a3 2b bd
       0.059754178 0.12074554 0.09989306 -0.041903637
000170 3b 12 7d 3d a7 64 cf 3d 02 2f 07 3e d6 f0 f9 ba
       0.061784964 0.1012662 0.13201526 -0.0019068967
000180 76 8a e8 bc b6 85 86 bd 1c 78 e0 bd cf 61 c0 bd
       -0.028386336 -0.06568472 -0.10960409 -0.093936555
000190 05 a5 4a 3d 4e 20 36 bd cf 16 86 3d d4 6c e9 3d
       0.04947378 -0.044464402 0.06547319 0.113977104
0001a0 db b3 2c 3e 28 68 97 3d 4c 66 29 3d db 20 12 be
       0.16865484 0.07392913 0.041357324 -0.14270346
0001b0 5b 4f 89 be c7 1b 1b 3c 44 12 c3 bd a8 d4 39 be
       -0.26818356 0.009467072 -0.09524968 -0.18147528
0001c0 df 0e 64 be 5e 7f e2 bd 4c 0e f5 be bc 2e 9d be
       -0.22271298 -0.110594496 -0.4786247 -0.30699718
0001d0 66 29 f6 be 7c 0e d8 be 14 d4 6f be 01 52 a8 be
       -0.4807846 -0.4219855 -0.23420745 -0.32875064
0001e0 34 ea b5 bd cf 59 38 be 8b c4 21 3c 1c 6e 1c be
       -0.08882561 -0.1800301 0.00987352 -0.15276378
0001f0 c7 f0 fe bd 36 62 65 be 01 33 8d bd 10 43 f6 bd
       -0.124482684 -0.22400746 -0.06894494 -0.1202451
000200 3f 78 bc bd c1 59 0a be be aa 3a 3d 79 98 ef bd
       -0.092026226 -0.13510801 0.04557299 -0.11699004
000210 71 f4 05 bf b9 6c 1d bf be e6 d4 be 41 1b dd be
       -0.52326113 -0.6149402 -0.41582292 -0.43184856
000220 4e 48 db be 55 6b 0e bf 34 66 48 be bb 2b b8 be
       -0.42828602 -0.55632526 -0.19570237 -0.35970864
000230 91 b0 26 be 5b a8 cf be 83 c7 2f be af f7 9a be
       -0.16278292 -0.40558133 -0.17165951 -0.30267093
000240 e3 f3 81 3d 06 34 5b 3e 32 50 71 3d df a9 cc 3d
       0.06345346 0.21406564 0.05891437 0.09993338
000250 6a 2d 1c 3d 48 b6 87 be ef 79 87 be 71 94 9d be
       0.038129248 -0.26506257 -0.26460215 -0.30777314
000260 16 df ab be 95 48 9c be 1b c3 d1 be 68 9c 81 be
       -0.3356864 -0.30524126 -0.40969166 -0.2531464
000270 b4 2a 59 be fc c8 2b be 94 47 33 be 4e f0 a6 be
       -0.21207696 -0.16775888 -0.17507774 -0.32605213
000280 9e 9c 9b be 59 8c f0 be 33 69 f7 3d bf b7 0d bd
       -0.30392927 -0.46982077 0.12080612 -0.034599062
000290 d6 91 0a 3e bc 4b 1a 3d 83 b1 37 3e 2f 67 e7 3c
       0.13532194 0.037669882 0.17938809 0.028247444
0002a0 00 c0 13 3e e3 c9 3e 3e fb 29 87 3d a0 81 00 bd
       0.14428711 0.18631701 0.06599804 -0.03137362
0002b0 ee 24 b8 3c f8 82 9d bc 34 19 51 be f2 dc 74 bd
       0.022478547 -0.01922749 -0.2041977 -0.059781022
0002c0 62 18 80 bd 40 25 a9 bd 37 06 2f be f0 18 a4 3b
       -0.06254651 -0.08259058 -0.17092215 0.0050078556
0002d0 4e a4 72 3e e8 e1 21 3e d2 21 63 3e be 5d 76 3e
       0.2369549 0.15808833 0.2218087 0.24059197
0002e0 d1 ae 59 3d a6 51 0b bd c8 ee a9 3d 49 0e 09 3d
       0.053145234 -0.034013413 0.08297497 0.03346089
0002f0 75 71 18 3e 77 3d 33 3e 3a 56 69 bc 44 e0 40 bd
       0.1488703 0.17503916 -0.014241749 -0.047088876
000300 67 a9 d1 3d 8e 4c 65 3d 97 20 f4 3d 09 d5 b5 3c
       0.10237389 0.05598121 0.119202785 0.02219631
000310 ac f3 dd 3b fe 1f 47 be 5f 60 a5 be 15 25 fb be
       0.0067734327 -0.19445798 -0.32300088 -0.4905173
000320 61 a3 02 bf 91 31 b1 be b1 73 f0 be 4b 91 d1 be
       -0.51030546 -0.3460813 -0.46963266 -0.40931162
000330 21 5f 0d 3e 1b af 70 3e 3a f2 9e 3d 3d 41 8d 3e
       0.1380582 0.23504297 0.07761045 0.27588835
000340 c0 93 71 3e 86 e0 36 be 72 e7 31 bd 3c 4c c4 3d
       0.23591518 -0.17859086 -0.043433614 0.09584853
000350 96 ca ba bd e2 81 06 3c 27 79 b7 3d 7d 73 91 3d
       -0.091206715 0.008209677 0.08958655 0.07102106
000360 b9 32 94 be b8 74 c4 be 93 73 e2 be 0d be 78 be
       -0.28944948 -0.383703 -0.442288 -0.24291249
000370 98 0d aa be 64 80 1b bf 1b 82 7e 3d b6 18 ca 3d
       -0.33213496 -0.60742784 0.062135797 0.098679945
000380 5c 38 74 3d e2 fe e0 3b ba 5f 4d 3d 22 32 61 be
       0.05962406 0.006866322 0.05014012 -0.2199178
000390 24 77 6c 3e ee 67 5c 3e 59 5c 1d 3e 81 89 99 3d
       0.23092324 0.21524021 0.15367259 0.0749693
0003a0 8b bb 69 3e b0 18 52 be c8 34 fe bd 5b f6 e8 3d
       0.22825448 -0.2051723 -0.12412411 0.113751136
0003b0 fb a4 aa 3b 1a 1f 18 3d 9b f3 f9 3d 8e 67 9b 3b
       0.0052076555 0.037139036 0.12204667 0.0047425693
0003c0 f6 6c a2 bc 74 52 4d be f3 b0 29 bc 32 f7 b9 bd
       -0.019827347 -0.20050985 -0.010357129 -0.09080352
0003d0 aa 10 89 bd aa 07 1e be 37 85 96 3e ae ad 82 3e
       -0.066926315 -0.15432611 0.2939851 0.25523132
0003e0 b7 c8 8f 3d 73 3c 52 3e 61 2e b2 3e 87 d0 c4 be
       0.07020705 0.20530872 0.3480101 -0.38440344
0003f0 19 2f 10 3e 05 49 8d 3e 95 5a 3c 3c 23 fb f0 3d
       0.14080466 0.27594772 0.011496206 0.117666505

lstm_arch.weight_hh_l0 f4 [200, 50]
000000 41 ca 0a be 0c 8b 00 bd ba 68 13 be 59 c4 51 be
       -0.13553716 -0.031382605 -0.14395419 -0.20485057
000010 a4 c1 96 3d 56 7d 2e be 16 03 63 be a1 8d 38 3d
       0.07361153 -0.1704 -0.22169146 0.045056943
000020 ce dd 18 3e dc 18 c1 3c ef 34 c0 bd 2c fa 5c bc
       0.14928362 0.023571424 -0.09385096 -0.01348738
000030 cc 3b 59 bd e7 a1 3a 3e 29 e4 96 3d 79 1f 50 bd
       -0.053035542 0.18225823 0.07367737 -0.050811265
000040 e5 7a d1 bc 9c 7e 49 3c 6c dd 88 3c 76 2f 2b bd
       -0.025571296 0.012298252 0.016707145 -0.04179331
000050 e5 c1 28 3e 88 f2 08 3e 6b c2 90 3e f2 57 43 be
       0.16480215 0.13373768 0.2827333 -0.19076517
000060 41 b5 0d be b1 bf d4 3c 6a 21 2b 3e a9 e2 fd bd
       -0.13838674 0.025970312 0.16711965 -0.123967476
000070 1e 8a 0f 3d 70 54 40 3d 23 b6 a3 bd 26 76 e5 3d
       0.03504383 0.046955526 -0.07993724 0.11204176
000080 35 51 f0 bc 9f 58 3b be ab b0 cf bc 3d 92 bb 3b
       -0.029335598 -0.18295525 -0.025352797 0.00572422
000090 a4 c8 18 3e d5 bd 93 bc ee b1 19 3e 93 eb 75 3e
       0.14920288 -0.018034855 0.15009281 0.24015646
0000a0 55 0d 23 3d 85 53 83 bd 16 94 78 bd 4a eb e9 bc
       0.039807636 -0.064124145 -0.0606881 -0.028554577
0000b0 d6 d2 9a 3d 1b 89 93 3e 9b 98 b8 3d ff b1 22 3e
       0.07559745 0.2881554 0.09013482 0.15888213
0000c0 8a c6 88 3d 34 90 eb bd d2 84 53 3c cb 0e b2 bd
       0.06678493 -0.11502114 0.012910085 -0.08694228
0000d0 d4 7c b9 bd d4 ba 9b bd da 57 66 bd 12 29 26 3e
       -0.09057012 -0.07603994 -0.056236126 0.16226605
0000e0 8a de 49 3d f5 77 e3 3d 05 df 0f bd c7 cf 0f 3e
       0.049284495 0.11106864 -0.035124797 0.14044105
0000f0 7c 0d 59 3d 3c 71 4c 3d 37 bc 0b be 36 30 ee bd
       0.052991375 0.049912676 -0.13646017 -0.11630289
000100 9c 69 f8 3d 0c 80 6e 3d e0 ca 1d bd 67 66 b7 3d
       0.121295184 0.058227584 -0.038523555 0.089550786
000110 73 c0 13 3e d2 3c 3c 3d 1b 88 10 be bc 11 95 3c
       0.14428882 0.04595644 -0.1411442 0.018196933
000120 ff 0b 79 3e f1 82 e2 bd bf b5 ca bd 1e 35 c6 be
       0.24320982 -0.11060131 -0.098979466 -0.387124
000130 81 24 ac bc 8f 91 b9 bd 18 c0 10 3e 18 1c 26 3e
       -0.0210135 -0.09060966 0.14135778 0.16221654
000140 29 68 10 3d 56 d9 03 3e 88 2e 52 bd 16 e2 52 3e
       0.035255585 0.12875876 -0.051313907 0.20594057
000150 e5 76 a2 bd 4b 21 93 3d 91 9a 47 3e ef 1f d2 bd
       -0.079328336 0.071840845 0.19492556 -0.10259997
000160 41 b4 62 3d d5 a9 d3 3d 26 78 33 3e 8b d6 8b bd
       0.055347685 0.10335127 0.17526302 -0.0682803
000170 58 b1 eb bd 9a de 3b bd b4 22 c8 bd 99 03 3c 3e
       -0.11508435 -0.045866586 -0.09772244 0.18360747
000180 08 34 d5 3d cb 3d dc 3d 85 df 0e bd 73 ac f9 3d
       0.10410315 0.107539736 -0.034881134 0.12191095
000190 97 f1 2e 3d df e7 b8 bd 1d 86 64 3c b1 a4 1e be
       0.042710867 -0.09028601 0.013947991 -0.15492512
0001a0 93 47 76 3d 60 47 a9 bd 26 9a 51 be 35 6b 86 be
       0.060126852 -0.08265567 -0.20468959 -0.26253667
0001b0 2f c7 c6 bd ea 0f 98 3d 8f b1 3d 3e cd 44 cf bd
       -0.0970596 0.0742491 0.18524764 -0.101205446
0001c0 eb b5 05 3d 61 63 ca 3d fe 35 79 3d 6c a0 0f bd
       0.032644194 0.09882236 0.060842507 -0.0350651
0001d0 53 51 5b be a6 6a 0c 3e b3 51 da bc 07 43 f9 bb
       -0.21417741 0.13712558 -0.026650285 -0.0076068672
0001e0 97 ea 11 3e cf ed 05 3d 07 75 80 3e ce 0e 55 be
       0.14249645 0.032697495 0.25089285 -0.20806429
0001f0 f2 1d 77 be b3 ea 0b 3e f7 30 2d 3e 99 b0 57 be
       -0.24132517 0.1366375 0.1691321 -0.2106346
000200 7d c5 f8 3d 99 b2 87 be 47 0c cb bd 7c 75 66 3e
       0.12147043 -0.26503447 -0.09914451 0.22505754
000210 d7 63 76 be d1 1c 3c 3b 14 de 8f be 65 c2 f5 3d
       -0.24061523 0.00287037 -0.2809912 0.119999684
000220 22 29 25 3e 48 a4 f5 bd 64 e1 50 3e f6 c2 89 3c
       0.16128972 -0.11994225 0.2039848 0.016816597
000230 ab da 84 3b 08 2a 65 3d 62 3b 38 be ce 78 92 bd
       0.0040543876 0.055948287 -0.17991403 -0.07151948
000240 da 17 12 3e 13 5b 54 3d dd 75 2c 3e cb a3 95 3d
       0.14266911 0.051844668 0.16841836 0.07306632
000250 38 bd 8b bc 5a dc 29 be 91 a6 88 bc 9f 79 90 bd
       -0.017058 -0.16587964 -0.016680988 -0.070544474
000260 3a 15 40 be 72 bd aa bb e0 32 b4 3c 21 30 0c 3e
       -0.18758097 -0.005210572 0.021996915 0.13690235
000270 c5 82 e0 bd 51 d8 4e be 65 68 44 3e 49 de 57 3d
       -0.10962442 -0.20199706 0.19180448 0.052702222
000280 ce 58 b0 bd d7 ff 67 3d 62 a0 a8 bc 79 ae 49 3e
       -0.08610688 0.056640472 -0.020584289 0.19695462
000290 81 39 5f 3d 69 15 01 be ca 23 ae bd 87 1e 87 3e
       0.0544982 -0.12605824 -0.0850292 0.26390478
0002a0 bd cf f8 bd d9 79 9d bd fb a1 36 3e 23 72 2d bd
       -0.12148998 -0.07689256 0.17835228 -0.042345177
0002b0 bb 13 90 bd 7a 37 20 be a3 46 88 bc 7a 25 2c 3e
       -0.07035013 -0.15646163 -0.016635245 0.16811171
0002c0 ad 4f 46 3e 75 8f 81 bd ac 2e 5c 3e c0 0a c8 bd
       0.19366331 -0.063261904 0.21502179 -0.097676754
0002d0 73 df 0e be db b4 9a 3d 5f 10 2a bd df 6e 45 be
       -0.13952427 0.07554027 -0.04151952 -0.19280575
0002e0 69 1c 46 be 30 bd f1 bc fe 70 94 3e db a3 8c bc
       -0.19346775 -0.029509157 0.28992456 -0.017167976
0002f0 40 af 56 3d 21 ad 72 3c 07 94 13 be 5e e3 98 bd
       0.052413225 0.014811785 -0.14411937 -0.07465242
000300 20 87 4d be 47 70 2e bd 79 b2 08 3e 3a 51 9f 3e
       -0.20071077 -0.042587545 0.13349332 0.31116658
000310 83 f3 42 3e 2e 79 04 3d 17 c9 ca 3d 44 53 3b be
       0.19038205 0.03234213 0.09901636 -0.18293482
000320 c9 16 93 3c 97 30 36 bd b9 5c da bb fc c0 dd 3d
       0.0179552 -0.044479933 -0.0066638854 0.108278245
000330 fb e5 20 3c db 84 9a bd 81 b6 93 3d ea 49 0e be
       0.009820457 -0.075448714 0.07212544 -0.13895383
000340 51 5b 11 bd b6 00 7d bd 14 e5 b6 3d 3d 0d 07 3e
       -0.035487477 -0.061768256 0.08930412 0.13188644
000350 94 99 d8 3c 36 0d 58 bd 97 e9 cb 3d 5b c0 23 3c
       0.02644042 -0.052746974 0.09956663 0.009994592
000360 1e fe 73 bd a8 a8 21 3e 3a 84 29 3e 6d 3b 29 3e
       -0.059568517 0.15786994 0.16554347 0.16526575
000370 1c f1 24 3d f9 35 b6 3d ad 55 16 3e 2f 7e 22 be
       0.040269002 0.08897013 0.1468112 -0.15868448
000380 00 64 83 bd 16 47 23 bc 35 3b 73 3d 9d 1d 36 be
       -0.06415558 -0.009965679 0.059382636 -0.17784734
000390 fd c6 02 bd fe 5d 3a bb a9 77 83 3d ba bd 1f bd
       -0.03192805 -0.0028437371 0.06419308 -0.038999297
0003a0 1e 69 8b 3d 7d ca 5c bd 40 3d 83 bc e4 01 3a bd
       0.06807159 -0.053904045 -0.016020417 -0.04541196
0003b0 d8 14 1b bd bb 54 49 3d 0d 32 b1 3d 15 d8 96 3c
       -0.037861675 0.04915307 0.086521246 0.018413583
0003c0 49 55 b8 3c 33 ac 47 bd 44 d8 09 be d7 86 7a 3d
       0.022501605 -0.048748206 -0.13461405 0.06116375
0003d0 be de cc 3d 1c 5e 9b 3c f3 d7 28 3e cd 7d 30 bd
       0.10003422 0.018965773 0.16488628 -0.043088723
0003e0 3a 25 53 3d 58 55 e3 3c 43 f7 a4 3d 6c c4 41 be
       0.051549174 0.027750656 0.08054974 -0.18922585
0003f0 22 80 52 3e 65 84 04 3e 28 b6 d0 3d 6a b6 2e be
       0.20556691 0.1294113 0.101909935 -0.17061773

lstm_arch.bias_ih_l0 f4 [200]
000000 99 19 5f be bc ab 80 be 42 32 2f bd fb 77 37 be
       -0.21787108 -0.25131023 -0.04277254 -0.17916863
000010 d0 96 87 3d 79 39 d8 be e1 9b 74 be 33 85 51 be
       0.06620562 -0.42231348 -0.23887588 -0.20460968
000020 54 69 97 be 20 a0 8e bd fb 65 d5 bd ff cf 17 be
       -0.29572546 -0.06964135 -0.10419842 -0.14825438
000030 9d 98 68 be de 8f 04 be b8 95 84 bd e5 c9 c9 bd
       -0.22714467 -0.12945506 -0.06473869 -0.098529615
000040 e2 c9 3b be ce 5d 2f bd 05 9d 54 bc cd 95 33 be
       -0.18338731 -0.04281407 -0.0129768895 -0.17537613
000050 64 07 23 be aa 19 a6 bc 98 db fe be 2b 18 37 be
       -0.15920788 -0.02027591 -0.49776912 -0.17880313
000060 dd 1a 58 bc d4 f7 98 be e8 52 d2 be d7 df 41 3c
       -0.013189998 -0.29876578 -0.41078877 0.011833153
000070 49 dd 70 3d 5d fc 1f ba 53 aa 27 be c5 04 7c 3d
       0.058804784 -0.0006102974 -0.16373567 0.061527986
000080 c5 f0 36 be 7a 17 90 be db c9 41 be 70 9f f8 bd
       -0.17865284 -0.2814291 -0.18924658 -0.12139785
000090 33 bb d5 be 0e cc 8b bd 04 79 36 be 06 58 3b bd
       -0.41744384 -0.0682603 -0.17819601 -0.045738243
0000a0 80 34 b1 bc db b0 c4 bd 45 b4 9b 3c 7d b9 14 be
       -0.02163148 -0.09604045 0.019006858 -0.14523883
0000b0 62 e9 8a bd d4 da a5 be e1 93 f1 3d bb ac e0 bd
       -0.067827955 -0.32393515 0.11795784 -0.10970446
0000c0 e3 36 2a be c5 ba 17 3c ee bf d3 bd bc fa 45 bd
       -0.166225 0.009260838 -0.10339342 -0.048334822
0000d0 75 12 69 bd 44 57 84 be 70 99 3f 3d e7 ba 11 be
       -0.056902368 -0.25847828 0.04677719 -0.14231454
0000e0 a3 c8 1c bd 54 2e 7a 3d e6 c2 81 be 62 4d 77 be
       -0.03827728 0.06107934 -0.25344008 -0.24150613
0000f0 82 50 44 3d ee e8 2e bd 7a 22 dd be e8 df 9b bb
       0.04792834 -0.042702608 -0.43190366 -0.0047569163
000100 b5 7b 29 be e6 7f 15 be 43 0a 94 3d 22 7e 78 3d
       -0.16551097 -0.1459957 0.0722852 0.060667165
000110 3e ae 8e be 09 d4 31 be 20 ba 5c be 70 06 cc bd
       -0.2786731 -0.17366041 -0.21555376 -0.09962165
000120 c7 f3 06 be 28 77 45 be 99 a7 16 be 44 f7 84 be
       -0.13178931 -0.19283736 -0.14712371 -0.259699
000130 c6 af 0c bf 52 43 6e be d7 0b 95 bd 20 d6 41 be
       -0.5495571 -0.23267868 -0.07277649 -0.18929338
000140 f9 6d 20 bd 3b be af 3c 09 9c 36 be 4c ed 9e be
       -0.039167378 0.021453014 -0.1783296 -0.31040418
000150 0a 91 07 3b 72 95 e8 bd c2 f7 a9 be 73 0f 4d bc
       0.0020685815 -0.113566294 -0.33196837 -0.01251589
000160 a3 af 90 bb 3e 3d ba bc 65 ec 97 bd ba 14 09 be
       -0.004415469 -0.02273428 -0.074181356 -0.13386813
000170 bd 9d e1 bd 11 a7 5f be 81 f2 3a bb 5f 9a bc be
       -0.11016414 -0.21841075 -0.0028525891 -0.36836526
000180 b1 32 3b be e2 65 e9 bd 26 36 82 bc a0 91 5c bd
       -0.18281056 -0.11396386 -0.01589496 -0.053849816
000190 15 9c 13 3e 7a 7e 9a be 31 7e d1 3d d5 2b 67 3e
       0.1441501 -0.3017462 0.10229147 0.22575314
0001a0 25 1d 07 3e c3 e3 9e 3d 49 df 70 be ba e3 9a bb
       0.13194712 0.07758286 -0.23522677 -0.004726854
0001b0 c2 e7 29 bd 89 ca 3a 3e 45 38 04 3e 03 fd 6f 3e
       -0.041480787 0.18241324 0.1291209 0.2343636
0001c0 6f 4b 43 be 43 cf e9 3d dd 87 a8 3d cf 29 d0 bd
       -0.19071744 0.11416485 0.08229039 -0.10164224
0001d0 09 c2 dc bc 0d 74 cb 3c 3f 51 15 3e 84 1d c8 bd
       -0.026947992 0.02483561 0.14581774 -0.09771255
0001e0 c2 30 ad 3d 68 80 e5 bd 91 ea 0f be a8 11 e0 3d
       0.084565654 -0.11206132 -0.14054324 0.10940868
0001f0 80 d1 c9 bd 9c 76 18 3b 8a 44 0c 3e 74 5c ee bd
       -0.09854412 0.0023264056 0.1369802 -0.11638728
000200 8f 07 9b 3d 01 45 aa bd e0 3c b6 bd 29 7b ac 3d
       0.07569801 -0.08313943 -0.0889833 0.084219284
000210 63 04 36 be 8c f7 4c 3d b8 8e 2e be 46 06 af bd
       -0.17775111 0.050040767 -0.1704663 -0.085461184
000220 a3 95 98 3c a3 77 03 bd e5 37 8a 3e d4 2f a7 bd
       0.01862604 -0.032096516 0.2699577 -0.08163419
000230 2a ed 55 3d 1f 2c 78 3e 11 30 88 be 19 52 19 be
       0.05222813 0.24235581 -0.26599172 -0.14972724
000240 d7 f2 58 be 6e cb ac 3d 9e e3 81 3e de 03 21 3e
       -0.21186386 0.08437239 0.2536897 0.15724131
000250 4c 30 8a bd a1 c5 39 bd 62 50 8b be 08 93 b8 bd
       -0.06747493 -0.04535449 -0.27209765 -0.09012419
000260 53 bc 36 be ac 52 90 be bf 35 16 be f3 3d ad be
       -0.17845277 -0.28188074 -0.1466894 -0.33836326
000270 af 4c e1 bd 9d 8b 20 be 31 11 d4 be a4 d6 83 bd
       -0.11000954 -0.15678258 -0.41419366 -0.06437424
000280 6f 71 50 bb 9e c1 49 bc 08 5a ae be ab 40 51 3c
       -0.0031805893 -0.012314228 -0.34053063 0.012771766
000290 83 e2 af bd 61 99 d7 3d 3a 0c 1a bd 59 f0 1f 3d
       -0.085881256 0.105273016 -0.037609316 0.039047573
0002a0 14 34 87 be 28 de 86 be 4c 84 82 be 37 db 1f be
       -0.2640692 -0.26341367 -0.2549156 -0.15610968
0002b0 25 c0 e3 be 54 69 62 be 9d 06 ba bc b1 3a 63 be
       -0.44482532 -0.22110492 -0.022708232 -0.22190358
0002c0 7c 35 0b bf 42 b3 81 bd d7 e2 c8 3c e0 33 92 bd
       -0.54378486 -0.06333019 0.024522228 -0.071388006
0002d0 47 99 4c 3d 1c 2e 21 be b5 7d c6 bd b8 de c7 be
       0.049950864 -0.15740246 -0.096919455 -0.39037108
0002e0 2b 91 f6 bd 89 e5 35 3c 1b bb e6 be 98 75 64 be
       -0.12039407 0.011102089 -0.45064625 -0.22310483
0002f0 58 fe 47 be 39 0f ed bd 15 8d 50 be d2 7f fe bd
       -0.19530618 -0.11575169 -0.20366319 -0.124267235
000300 34 ef ed 3b 78 42 00 be dc 9c bb bb 6a 34 62 be
       0.0072611813 -0.12525356 -0.005725486 -0.22090307
000310 16 31 4c 3c c4 d6 6d be 55 fe a4 bd ce 61 4c bd
       0.012462875 -0.23226458 -0.080563225 -0.04989796

lstm_arch.bias_hh_l0 f4 [200]
000000 ea b2 96 be 2d e9 c0 bd cf 1e 99 be 0f 20 46 be
       -0.29433376 -0.09419475 -0.29906318 -0.19348167
000010 86 e5 00 bd 68 47 95 be cd 62 49 be 23 36 2a be
       -0.03146889 -0.2915604 -0.19666596 -0.16622214
000020 b6 e5 9e be ff e7 e9 bd 03 a8 af bd 7c 75 70 bd
       -0.3103463 -0.11421203 -0.085769676 -0.05870579
000030 89 6e 2c be 2c 73 4a be e6 ef c9 bd 89 d3 ea bd
       -0.16839041 -0.19770497 -0.0986021 -0.114661284
000040 f3 61 36 bd 24 aa 1c 3d 3a 72 a4 bd 3a 16 90 be
       -0.044527005 0.038248196 -0.080295995 -0.28141958
000050 f3 84 d7 bd 24 61 4e bc 78 5d a7 be 67 6e a2 be
       -0.10523405 -0.012596402 -0.32688498 -0.31724855
000060 5f fa 4b 3c 45 09 29 be 56 76 fb be da 93 00 3e
       0.01244983 -0.16507442 -0.4911372 0.12556401
000070 97 c8 a7 bc d0 15 a8 bc 2d 5a 01 3d c3 03 75 3c
       -0.02048139 -0.020518214 0.03158014 0.01495451
000080 e8 4d dc bd 0b ee c1 be fd 7d 1b 3d 88 0c 57 be
       -0.10757047 -0.37876925 0.03796195 -0.21000874
000090 ef b1 d9 be ff 06 0f bd d0 a3 f0 bd fe 8f ce bd
       -0.42518565 -0.03491878 -0.11749995 -0.10086058
0000a0 2f 2e 68 bb b7 6d a9 bd 55 2e 06 bd 6d ed a4 bc
       -0.0035427918 -0.082728796 -0.03275903 -0.020132745
0000b0 24 c2 f1 bd ec da b3 be 7f 29 4f bc 5e 6d 73 be
       -0.118046075 -0.35127962 -0.012644171 -0.23772189
0000c0 c5 9b 2c be 60 e5 11 bd a4 ed 49 bd c2 d2 3a 3d
       -0.16856296 -0.03561914 -0.049298897 0.04561115
0000d0 aa ab a0 be 2c 55 4d be d0 07 81 3c b3 5b 1e be
       -0.3138097 -0.20052022 0.015750796 -0.15464668
0000e0 1f 25 e2 ba 7a 54 ac bd c5 12 a4 be a7 0a 80 be
       -0.0017253495 -0.0841455 -0.3204557 -0.25008127
0000f0 6c ed 4a 3d 3e a3 46 be 0a 44 c3 be 34 b3 8b 3d
       0.04954283 -0.1939821 -0.38137847 0.0682129
000100 78 02 69 bd 38 5b 93 bd 29 8a 8b 3d fa 47 08 be
       -0.05688712 -0.07195133 0.06813461 -0.13308707
000110 51 d8 00 bd 71 e8 9d be a6 ea 8c be fa ae 0b be
       -0.031456295 -0.308414 -0.27522773 -0.13640967
000120 1c db 94 be d0 f2 ea bd 91 5b 88 bd f5 24 1a be
       -0.29073417 -0.11472094 -0.0665809 -0.1505316
000130 16 9f 0a bf c2 ed 0c bc bc 6a 08 be 12 41 7d bd
       -0.54148996 -0.008601608 -0.13321966 -0.061829634
000140 54 4a 39 be c5 12 92 bc 27 5f 2b be 8d a9 ae be
       -0.1809476 -0.017831216 -0.16735516 -0.34113732
000150 c2 c1 80 bd 5a 94 77 bd 22 1b c0 be 54 8e 56 be
       -0.06286956 -0.060444213 -0.375207 -0.20952731
000160 ca bc 88 bc 6d d6 54 be bd 76 c9 bd 3c b7 0a be
       -0.016691584 -0.20784922 -0.09837101 -0.13546461
000170 8d bb 69 bd ed 97 62 be 76 fd 3b be d1 30 9f be
       -0.057063628 -0.22128268 -0.18358406 -0.3109193
000180 74 c6 8e bd b4 57 5e be 52 eb 8f bd d8 ce 44 3b
       -0.06971446 -0.21713144 -0.07027306 0.0030030515
000190 12 b7 9b 3d f9 31 2d be 71 cc d6 3d 7f 4f 43 3e
       0.07603277 -0.16913594 0.10488213 0.19073294
0001a0 a5 c1 cf 3d c7 0f f2 bd ae e4 b9 bd b9 8e 2c bd
       0.10144357 -0.118194155 -0.0907682 -0.0421283
0001b0 b8 d6 35 bd 7d f7 2b 3e 4e e2 81 3e 9e fe 87 bc
       -0.044394225 0.16793628 0.2536797 -0.016600903
0001c0 04 31 a3 bb bf f0 41 3e fd cf b8 3d 01 c9 3f bc
       -0.0049802084 0.18939494 0.090240456 -0.011705638
0001d0 64 54 f5 ba 8d a6 a7 3d d9 69 7a 3d da 97 bc bd
       -0.0018717167 0.08186064 0.0611361 -0.09208651
0001e0 af e6 30 3e aa 41 07 be 12 2c 03 be da 9b c1 3d
       0.17275499 -0.13208643 -0.1280978 0.094535545
0001f0 ba a9 de bd 00 0e a6 3a 0d 48 43 bd fc 92 7d be
       -0.108722165 0.0012668967 -0.047676135 -0.24763101
000200 f6 b3 5c 3e b3 c4 cc 3d bc 87 06 be 23 f5 11 3e
       0.21553025 0.09998455 -0.13137716 0.14253668
000210 0c 61 11 bc 3d 41 7d bd 72 f9 79 be c9 3c b5 bd
       -0.008873235 -0.061829794 -0.24411562 -0.088494845
000220 cb 2e 5a be cb 60 2d 3d e2 ea dd 3d bf b3 0c bd
       -0.21306913 0.042328637 0.10835816 -0.034351107
000230 3d 9d 50 3e bb 95 52 3e 30 90 49 bd 07 cf 53 be
       0.20372482 0.2056493 -0.049209774 -0.20684443
000240 81 f6 09 be a4 51 24 3d dc 10 88 3d 46 75 a3 bd
       -0.1347294 0.04011692 0.06643841 -0.079813525
000250 99 73 34 bd 5d f9 a5 3d 4e a1 8b be ec 41 18 be
       -0.044055555 0.08104203 -0.27271503 -0.14868897
000260 ba ac 27 be 2a 8b 47 bd e2 4c a8 bd 95 81 a1 be
       -0.16374484 -0.0487167 -0.08217789 -0.31544176
000270 0c b5 0e 3d 94 6f 27 be 59 1e e8 be 2a a3 ff bd
       0.03484063 -0.16351157 -0.45335653 -0.12482293
000280 0b ff 61 bd 06 c2 84 bd 08 20 5f be d3 5e 04 be
       -0.05517487 -0.064823195 -0.21789563 -0.12926798
000290 94 ef 0c bd 4f 78 b4 b8 4c db 22 3d bf 6e 22 be
       -0.034408167 -8.605478e-05 0.03975992 -0.15862559
0002a0 4f 70 6a be 51 b2 03 be 88 c2 8d be c7 52 d6 bc
       -0.22894405 -0.12860991 -0.27687478 -0.026162518
0002b0 95 bb cf be c8 5d c0 bd 51 7b 48 be a0 b6 19 be
       -0.405728 -0.09392887 -0.19578291 -0.15011072
0002c0 f6 2b 13 bf 2c d8 f8 3d cb 15 d9 bc dd 92 02 3d
       -0.57488954 0.121506065 -0.02649965 0.03187834
0002d0 1c eb bc bd 7f d1 3e bd 1b 20 74 bd 20 8f 84 be
       -0.09224531 -0.04658651 -0.05960093 -0.25890446
0002e0 d4 1f 0d be 88 24 1c be 85 f4 81 be 5a e5 76 bd
       -0.13781673 -0.1524831 -0.25381866 -0.06027732
0002f0 2a 7f 54 bd 80 17 57 3d 9b b6 f4 bd 4b 79 2e bd
       -0.051879086 0.052512646 -0.11948892 -0.042596143
000300 6c b2 0c 3d 50 d8 ae bd 62 37 3a be e2 39 78 be
       0.034349844 -0.08537352 -0.1818519 -0.2424083
000310 ba 2f 24 3e c1 4a 1e be d7 fe 59 bd 27 35 17 be
       0.16033831 -0.15458204 -0.05322155 -0.1476637

lstm_arch.weight_ih_l1 f4 [200, 50]
000000 1a bd 25 bd 3b 7b 3c be 43 0c b5 3d ef 57 0b be
       -0.040463544 -0.18406384 0.08840229 -0.13607763
000010 2c 0f 72 3e ca 03 67 bd 24 fc 21 be 3b fa 58 be
       0.236386 -0.056400098 -0.1581884 -0.21189205
000020 07 34 06 3e db f7 0b 3e 23 9e d4 3d 7d 51 4b bd
       0.13105784 0.13668768 0.10381725 -0.04963826
000030 28 da d9 bd d0 e8 af 3d cb bf a5 3e 23 d0 58 bd
       -0.10637313 0.08589327 0.3237289 -0.05293287
000040 e9 4e 30 be 0c c2 80 3e 0a 52 cf bd e0 ba 49 3e
       -0.17217602 0.25148046 -0.101230696 0.19700193
000050 9d 90 82 3d 85 90 f8 3d 33 dc c4 3d 52 33 d3 3d
       0.06375239 0.1213694 0.09612312 0.10312523
000060 52 bb b1 be 2d d1 69 bd e8 32 af bd 1e cd ea bd
       -0.34713227 -0.05708425 -0.085546315 -0.11464904
000070 90 5c 26 3e 29 a6 57 be 76 8b aa be c8 cf c4 3d
       0.16246247 -0.21059479 -0.33309525 0.09609944
000080 49 4e de bd d7 f0 c1 3d 34 12 e1 bd 90 7a 7c bc
       -0.108547755 0.09469765 -0.109898 -0.015410081
000090 0c 1d e7 3c 82 a8 cb bd 4b 88 38 3e 63 09 b4 3d
       0.028212093 -0.0994425 0.18020742 0.08790853
0000a0 2a 85 e8 3d d1 12 64 3e fd 15 e2 bd 8c 28 99 bc
       0.11353524 0.22272803 -0.1103935 -0.018696092
0000b0 f4 76 27 bd f1 7e c2 bc 7a 6f 96 3d ef d9 29 3e
       -0.040884927 -0.023742171 0.07345481 0.16587041
0000c0 53 ee 94 bd 83 7c bc bd 19 9a 92 bd 0d 2a 43 3c
       -0.07272019 -0.09203436 -0.07158298 0.011911881
0000d0 ca 10 1c be d2 30 27 be c8 10 6c bb 6e 73 4c bc
       -0.1524078 -0.16327217 -0.0036020745 -0.012478692
0000e0 c0 be 0d bd 88 96 f8 bd dd eb 84 3d 8e a8 55 be
       -0.03460574 -0.121380866 0.064903 -0.2086508
0000f0 73 9d e0 bd 8d 43 4d bd 49 11 f7 3d 21 d4 17 be
       -0.10967531 -0.05011325 0.12063844 -0.14827015
000100 aa c5 83 3c 58 ee 03 be 23 54 c7 bc f1 ed bd bc
       0.016085465 -0.1288389 -0.024332112 -0.023184748
000110 69 5b 0b be ae 6c fb 3d 6b 6f 32 be 22 81 0f 3d
       -0.13609089 0.122765884 -0.17425315 0.03503526
000120 b9 7e a8 3d 3c e3 13 be f8 1a 78 bc 9d da c2 3d
       0.082272954 -0.14442152 -0.015143149 0.095143534
000130 03 51 d9 3d a8 c7 0e 3e 6f 7d ed 3c cf 94 ac 3d
       0.10611155 0.1394335 0.028990475 0.084268205
000140 44 62 db bd ef 1f 9d bd 78 34 d9 3b 92 73 4d bd
       -0.10712102 -0.076721065 0.006628569 -0.050159045
000150 78 d4 8f 3d cf 75 7e 3c 01 9f 41 3c f3 48 d7 3c
       0.07022947 0.015531017 0.011817695 0.026279902
000160 47 21 04 be 93 7d 2c bd f4 eb 3a 3c c2 31 e7 bd
       -0.1290332 -0.042111944 0.011408795 -0.112887874
000170 e7 41 1a 3e 7a 06 c3 3d 00 56 01 3e f9 fe c6 3d
       0.15064202 0.0952272 0.12630463 0.09716601
000180 91 fb 03 be c5 28 61 3c 44 6c 06 3e c4 72 ee bc
       -0.12888934 0.01374263 0.13127238 -0.029107459
000190 e1 26 58 be 51 9d 0e 3e d1 9c ce bd 1d e4 9a bd
       -0.21108581 0.13927199 -0.10088504 -0.075630404
0001a0 e1 26 62 bd a8 e2 52 3d e3 c4 da 3d 9e f9 b7 3d
       -0.05521286 0.051485687 0.106820844 0.089831576
0001b0 d7 21 c4 3d 9d be 23 3c 66 a5 25 bd 3a 87 41 3d
       0.09576767 0.009994176 -0.04044094 0.047248103
0001c0 78 cc ee 3d e1 f0 8b bd 35 0e e5 3d 6e 58 13 be
       0.11660093 -0.068330534 0.111843504 -0.14389202
0001d0 58 95 8e 3c 5f 6e 61 bd ae e5 e0 bd 4d f7 bb 3c
       0.017405197 -0.0550369 -0.10981308 0.02294507
0001e0 f6 82 6f be fa f5 00 3e 63 93 db bc e0 d2 4e be
       -0.23389801 0.12593833 -0.026803678 -0.2019763
0001f0 25 66 f1 bc ca 68 41 3d 88 93 08 be b5 35 ae 3c
       -0.029467652 0.047219075 -0.13337529 0.021265844
000200 d8 04 c7 3b 18 5b 78 bd 94 ce f8 3d 24 ca ce bc
       0.0060735755 -0.06063375 0.12148777 -0.025242873
000210 3b 76 c6 bd d5 ee 2f bd 18 7a 8b 3c c9 c2 e2 3d
       -0.096905194 -0.042952377 0.017025992 0.110723086
000220 e6 e9 5c 3e a7 fc 7d 3d b7 4b 1d be e9 98 14 3e
       0.215736 0.062008526 -0.15360914 0.14511456
000230 45 38 00 be 1a 07 c4 bd d3 ef 63 bd 7d 01 68 3e
       -0.12521465 -0.09571667 -0.055648636 0.22656818
000240 5d b5 8e 3e 0b ee 9b bd b6 01 db bd 53 06 ea bd
       0.27872744 -0.076137625 -0.10693686 -0.114269875
000250 34 ae df bd 6c a4 c5 bc f1 70 9b bc 74 83 d8 3d
       -0.109218985 -0.024126254 -0.018974753 0.10571948
000260 d6 de 4f bc 04 8c 0f be 79 35 d5 3d b1 3b 87 bc
       -0.012687406 -0.14018255 0.1041059 -0.016507955
000270 bb 4d 1d 3e 5c 9e 9f 3d d2 93 c8 3d fa 04 42 3d
       0.15361683 0.077938765 0.097938195 0.047368027
000280 30 9f 02 3b c3 17 18 be a8 64 07 3e cb 4e 27 be
       0.001993131 -0.14852814 0.13221991 -0.16338651
000290 80 56 ae 3d 25 29 c1 bd c3 10 06 be 35 dd a9 3d
       0.08512592 -0.09431676 -0.13092332 0.08294145
0002a0 ae ed 0b be b2 c1 65 3c 5f 2c 2f 3d 7a 91 35 3e
       -0.13664886 0.014023231 0.042766925 0.17731276
0002b0 90 c9 82 3d 46 73 28 be b9 eb ef 3d 12 5a 0f 3e
       0.06386101 -0.16450223 0.117148824 0.13999203
0002c0 b3 86 6b bb 33 5e fc 3d 72 3c fe bd 48 8a 89 3d
       -0.0035938441 0.123226546 -0.12413873 0.06715828
0002d0 15 3e 06 3d 98 0a 4c 3c f2 4c 9d 3d ab 36 88 bd
       0.03277405 0.012453698 0.07680692 -0.06651052
0002e0 96 f3 f1 bc ed 99 90 3c b9 a9 08 3e 56 e3 d8 3d
       -0.029535096 0.017651523 0.13345994 0.10590236
0002f0 d8 89 ce bd 59 27 23 bc 78 d2 8a 3d 91 96 1c be
       -0.10084885 -0.009958112 0.06778425 -0.15291812
000300 91 2b 2a 3e e9 71 89 3d 19 32 c2 3d ae 8f b2 3d
       0.16618182 0.0671118 0.094822116 0.08718811
000310 56 37 cd bd a3 f4 43 3d 5c 3d 26 bc 39 ad cc bd
       -0.1002032 0.047840726 -0.010146465 -0.09993977
000320 75 1a af bd fe 11 ba bd 46 17 0e 3b 97 f6 a0 bc
       -0.08549968 -0.09085463 0.0021681353 -0.019648833
000330 37 05 e9 bd 3a 58 88 bd 19 e7 e0 3d 5b 30 1e be
       -0.11377948 -0.06657453 0.109815784 -0.15448134
000340 dd 04 42 bd be d6 28 3d 48 9a 13 be d3 12 2f 3b
       -0.04736792 0.04122042 -0.14414322 0.00267141
000350 cf da 27 3e 7d d1 d0 3d 26 b4 60 bd 3e 55 d0 bc
       0.16392063 0.10196207 -0.054859303 -0.025431272
000360 0e a1 bf bd c7 7a de 3d b4 5f 5d be 4e dd 0b bc
       -0.093568906 0.10863262 -0.21618539 -0.00853665
000370 8f d8 f9 bd f9 26 b1 3d dc 5e 5c 3d 3f 92 97 3c
       -0.121995084 0.086500116 0.053801402 0.018502353
000380 f0 b4 a2 3d 35 18 59 3e 50 44 d9 39 d9 e8 58 3d
       0.07944667 0.2120064 0.00041440362 0.052956436
000390 12 01 f1 bd e5 b3 2f be 09 2a 6a bd 05 a2 7e 3d
       -0.11767782 -0.17158468 -0.057168994 0.062166233
0003a0 12 e5 c0 bd 4e ae a3 bd c0 5d f5 3d 1c 10 72 3d
       -0.09418692 -0.0799223 0.11980772 0.059097394
0003b0 e2 26 1c bd 0d 36 3e 3d dc 09 ec bd 93 e2 bc 3c
       -0.03812302 0.046438266 -0.11525318 0.023057258
0003c0 2d 69 a1 bd 32 26 90 3d c4 75 be bc 85 b5 ca 3d
       -0.07881389 0.07038535 -0.023249514 0.09897903
0003d0 b2 3a 78 3e 0b ce 33 bc 3a 29 1f 3d 5d 44 23 ba
       0.2424114 -0.010974417 0.038857676 -0.00062281435
0003e0 95 a5 cb bd 41 1e 78 bd a8 3b 3e be 34 4e ed 3d
       -0.09943692 -0.060575727 -0.18577445 0.11587182
0003f0 6d 3d 89 bd 4f 60 06 be 0b 2f 19 bc 67 26 33 bc
       -0.06701169 -0.13122676 -0.009349595 -0.010934449

lstm_arch.weight_hh_l1 f4 [200, 50]
000000 32 f5 b7 bc 93 5b 8c be 93 e0 6c 3e 71 52 90 3e
       -0.022455785 -0.27413616 0.23132543 0.28187898
000010 c8 59 ed be 49 66 a2 3e a4 ff da be e1 9d de be
       -0.4635756 0.31718662 -0.42773163 -0.43479827
000020 b5 50 20 be 6a 9e 67 3e 47 2a c2 bd 73 97 f8 3e
       -0.15655787 0.22619024 -0.0948072 0.48553047
000030 f7 1b 9f 3e b5 a7 4c 3e 20 6b a9 be 66 0e c5 be
       0.31076023 0.1998585 -0.33089542 -0.38487548
000040 af 3b ad bc b3 bf 88 bc 79 39 af bc e0 df c8 be
       -0.021146623 -0.016692972 -0.02138971 -0.39233303
000050 2c 95 d9 3e 8d 1e 86 be b9 44 c8 be ba 1c 05 be
       0.42496622 -0.26195183 -0.3911493 -0.1299924
000060 00 5c 8b bd 98 ab 89 bc 49 b2 ae 3d 34 7d 7b 3e
       -0.06804657 -0.016805455 0.08530099 0.2455948
000070 fe b6 54 3d f1 c8 ef 3e 76 13 1c 3e 19 47 a4 bd
       0.051932327 0.46832994 0.15241799 -0.08021373
000080 9d 48 0b 3e e4 6c 4e 3e 17 d3 2f 3b 4e 34 87 3e
       0.13601919 0.20158726 0.00268287 0.26407093
000090 5e be a5 be 96 05 b1 3e f7 77 f5 be 24 b7 b3 3e
       -0.323718 0.34574574 -0.47943088 0.35100663
0000a0 db 2f 9f be 24 ca 85 be 67 41 28 be f9 72 98 be
       -0.31091198 -0.26130784 -0.16431199 -0.29775217
0000b0 00 01 5c be c4 5f 96 3d a3 c7 8b be af 3a f6 bd
       -0.21484756 0.073424846 -0.27300748 -0.12022912
0000c0 69 bd df 3d 18 60 b2 bd 04 cc 32 3d d8 22 14 be
       0.10924799 -0.08709735 0.043651596 -0.14466417
0000d0 d6 0d e6 bc 92 2e 28 3e 54 42 07 be 74 e1 81 3d
       -0.02808277 0.16424015 -0.13208896 0.0634183
0000e0 93 8a 47 bd 05 3c d7 bc e7 7d eb bd a2 e6 9c 3c
       -0.04871614 -0.026273737 -0.11498623 0.019152943
0000f0 bf ba 92 bc 8b 3a 84 3d 97 62 21 3d b4 11 cf 3c
       -0.017911313 0.06456479 0.039400663 0.025276996
000100 cb 85 0a bc 77 8c 86 bd 0b 4f 29 3d 1e 41 bd bd
       -0.00845475 -0.0656976 0.041335147 -0.09240936
000110 9a c0 d1 bd 53 f6 d8 3c 50 8a 51 3e 33 4f cd 3c
       -0.10241814 0.026484644 0.20462918 0.02506218
000120 22 8c 87 3d 9b 0a 04 3e 15 a7 0d 3e 8e a7 25 3e
       0.06618525 0.1289467 0.13833268 0.16177198
000130 c7 33 04 3d 13 df 23 3d 15 c7 48 3d dd 3f 24 bd
       0.03227594 0.040007662 0.049017984 -0.040099967
000140 ac d8 c1 3d 68 b8 ab bd 64 7e d9 bc ab 99 52 3e
       0.09465155 -0.08384782 -0.026549526 0.20566432
000150 9a e0 8a 3d 70 67 a7 3c 67 97 07 be b2 ff 93 3b
       0.067811206 0.020435065 -0.13241349 0.0045165652
000160 fa e4 36 3d 76 6f 1f 3b e4 38 f6 bd 67 07 89 bd
       0.044651963 0.002432791 -0.1202257 -0.06690865
000170 db 86 73 be 92 51 cd 3c 5b 69 6b 3d 9d 3a 5d 3d
       -0.23781912 0.02506331 0.05747352 0.054010976
000180 10 29 13 be 37 ea 8d bd cc 07 25 3e c9 55 5b ba
       -0.14371133 -0.069294386 0.16116256 -0.000836697
000190 df 81 ae 3d c1 1c 92 bc 7c bc 23 3e d1 bc 24 3d
       0.08520865 -0.017835977 0.1598987 0.04021913
0001a0 fa bc a5 3c 24 a0 e2 3c 2c 1c 01 bd 86 51 a5 bd
       0.020231713 0.027664252 -0.031521007 -0.0807219
0001b0 4c f8 56 bd 25 5d 0c 3e 16 29 a4 bd c9 a0 4d 3c
       -0.052482888 0.13707407 -0.08015649 0.012550541
0001c0 b7 9d 8e 3d b4 00 da 3d 0d d9 c8 bc 55 a4 4f 3d
       0.069636755 0.10644665 -0.02451756 0.05069383
0001d0 c9 a2 c2 3d f6 7c 52 ba c2 3f c7 3d 8f 49 2b be
       0.09503705 -0.0008029485 0.09728958 -0.16727279
0001e0 ed c9 2e 3e 33 b2 82 3d b8 59 dd 3b 60 02 e3 3d
       0.17069216 0.06381645 0.00675508 0.11084437
0001f0 13 4a 08 3e bc 80 6c 3d 44 73 41 3e 4e 45 41 3e
       0.13309507 0.05773996 0.18891627 0.18874094
000200 29 ac 32 3e 78 72 a6 3d a3 5a 3e 3e df 92 fb 3c
       0.17448486 0.08127302 0.18589263 0.030709682
000210 5a fc a6 bd ef d3 9a 3d 74 87 05 bd c8 c1 e5 3d
       -0.08153601 0.075599544 -0.03259988 0.112186015
000220 d5 6a a7 bd 82 53 74 3d 41 46 0e be 6c e9 02 3e
       -0.081746735 0.05964995 -0.13893987 0.12784356
000230 0d bf cb 3c e0 76 b7 bb 85 3f 9a bd ad a6 27 be
       0.024871374 -0.005598888 -0.07531647 -0.16372176
000240 d6 54 d1 3d 00 b0 3b 3e bb 75 82 3c bc 8e 2e be
       0.10221259 0.18328857 0.015925279 -0.17046636
000250 92 c1 a3 bd e6 9c 04 3e 13 8e 19 3e 5d a3 fa bc
       -0.07995905 0.12950477 0.14995603 -0.030595476
000260 d1 a0 45 3d cf fd 64 3e 29 4e d1 3c 14 bc 7a 3d
       0.04824907 0.22362445 0.025549965 0.06121452
000270 73 5a 90 3c 49 71 b6 bd ed b1 55 3d ad a3 eb 3d
       0.017621255 -0.08908326 0.052171636 0.11505828
000280 80 9a 04 bd 4a 0a 2b 3e fb c9 54 3d 24 b6 2d 3e
       -0.032373905 0.16703144 0.051950436 0.16964012
000290 77 f9 67 be de b1 4a 3d fb b7 96 bd 4a cc 2d 3e
       -0.22653757 0.049486034 -0.0735931 0.16972461
0002a0 f0 b6 42 3c df 9c f7 bd 73 8f c3 3c 7e 90 39 bd
       0.011884436 -0.12090468 0.023872113 -0.045303814
0002b0 52 14 ef bd f8 f7 db 3d e4 94 f1 bd 94 9e 4b 3e
       -0.11673798 0.10740656 -0.11795977 0.19884712
0002c0 8d 10 25 3d 9e cd 00 3e c1 2f e1 3d 70 85 bc 3d
       0.040298987 0.12578437 0.109954365 0.09205139
0002d0 0e 55 b9 3d fd 96 80 be 82 be ab 3c ae e4 37 3e
       0.09049426 -0.25115195 0.020964865 0.17958328
0002e0 e1 39 92 bc 21 38 4d 3e eb f4 bb bd 39 75 5b 3e
       -0.017849864 0.20040943 -0.09177574 0.21431436
0002f0 a9 c7 27 bd e2 7f 08 3e 79 f8 1c 3d a7 a6 a5 bd
       -0.040961895 0.13330033 0.0383229 -0.08088427
000300 12 f4 63 be 2f 2b bb bd ce 10 96 bd 28 a7 65 3e
       -0.22261074 -0.09139096 -0.07327424 0.22427046
000310 5d d8 7a be a8 f7 9b bd 83 6b 71 3d 53 2f 04 bd
       -0.24496599 -0.07615596 0.05894042 -0.032271694
000320 db c6 89 3d 8f 2e 17 be 4d 1b 03 3e 40 b8 22 3e
       0.06727382 -0.14763854 0.12803383 0.15890598
000330 a0 a0 1a 3c ee 0b f5 ba ac 3b 51 be 59 9e 4f 3d
       0.00943771 -0.0018695572 -0.2043292 0.05068812
000340 e7 72 28 be 1b 62 f0 bc 79 12 59 bd 0d 82 34 3d
       -0.16450082 -0.029343655 -0.052996133 0.04406934
000350 e4 76 38 3e 65 1a 1a 3e 59 34 b9 bd 58 28 28 3d
       0.18014103 0.15049131 -0.09043188 0.0410541
000360 c7 53 fc 3d c9 19 9d bd 4d d5 77 bd f2 79 db bd
       0.12320667 -0.07670934 -0.060506154 -0.107166186
000370 89 78 e6 3d bf 69 ff 3c 66 b2 13 be 70 db 10 3e
       0.11253459 0.031178353 -0.14423522 0.14146209
000380 01 da cb bd 6c 9c 26 bd 2e 57 0b 3b 66 f1 3b 3d
       -0.0995369 -0.04067652 0.002126168 0.045884512
000390 52 ac 36 be 9a 61 69 bd b9 ef ea 3d b3 77 2d 3b
       -0.17839172 -0.056977846 0.11471505 0.0026469051
0003a0 8a bd 12 be f6 21 c3 bb 28 79 2d bd 65 79 24 3e
       -0.14330116 -0.005954976 -0.04235187 0.16061933
0003b0 b6 d8 55 3d 0b ac d5 3d fb 7b 4d bd aa 23 06 3e
       0.052208625 0.10433205 -0.050167065 0.13099542
0003c0 a5 ec 49 be d5 ac db 3b 5f de e6 bd 44 91 96 3c
       -0.19719179 0.006703953 -0.11272883 0.018379815
0003d0 a9 1b 84 3d e7 e5 54 3e eb bf 46 3d 58 8d 1a bd
       0.06450588 0.20790826 0.04852287 -0.037732452
0003e0 48 7e 47 bd 46 42 05 3d a6 e0 41 3d fa 54 2f be
       -0.048704416 0.032533906 0.047333382 -0.1712226
0003f0 9e ee d4 3d c0 b3 21 3e 99 1c 43 3b 57 03 69 bd
       0.10397075 0.15791225 0.0029771684 -0.05688795

lstm_arch.bias_ih_l1 f4 [200]
000000 34 91 68 be 0c 44 33 bc 63 7f b4 3d 40 0e 02 be
       -0.2271164 -0.010941517 0.088133596 -0.12700748
000010 86 4b 9b 3c a4 b9 0e 3c a1 68 0b be 28 64 1a be
       0.01895691 0.008711252 -0.13614132 -0.15077269
000020 da 5b 84 be 2f 50 03 3e c8 ae ec be f3 3a 0c be
       -0.25851327 0.12823556 -0.46227098 -0.13694362
000030 22 6e b0 bc a1 3d c1 bd 96 65 11 be 6d ca f9 3d
       -0.02153689 -0.09435583 -0.14198908 0.12196813
000040 02 a1 5e be fa d8 9e be 8f e9 7c be 3b fc 35 be
       -0.21741107 -0.31024915 -0.2469847 -0.17772
000050 16 3f f2 bd 34 97 69 3c 0a d3 d1 bd 44 ee 87 be
       -0.11828439 0.014257241 -0.10245331 -0.2654897
000060 40 0b 4e be 7c a3 2e be 02 a5 83 be 42 e9 19 bd
       -0.20121479 -0.17054552 -0.25711828 -0.037575968
000070 9b c3 9d be b9 e7 4d bd 5f df a8 be 89 eb b6 bd
       -0.30813298 -0.050269816 -0.3298292 -0.089316435
000080 64 17 b6 be 3e dd 4a bc 2f 16 a3 be 1b f0 fc bc
       -0.3556472 -0.01238185 -0.31852862 -0.03087621
000090 05 56 11 be e3 e7 99 3c b8 57 05 3e cb 8a d6 bc
       -0.1419297 0.01878733 0.13021743 -0.026189229
0000a0 8b b7 53 3c 8f b4 d9 bd 14 f0 71 bc cc 63 ef bd
       0.012922178 -0.10630142 -0.014766712 -0.116889566
0000b0 42 7c cc be 2b 32 fa bd c4 c5 02 be 08 0d 9e be
       -0.3993855 -0.122166 -0.12770754 -0.30869317
0000c0 58 11 56 be e8 b2 16 be 29 fc a0 be 28 d4 1b 3d
       -0.20905054 -0.14716685 -0.31442383 0.038044125
0000d0 c7 a2 7f 3d 70 5b 31 be ea 4a d7 bd 96 e2 73 3c
       0.062411096 -0.17320037 -0.105123356 0.014885565
0000e0 93 63 4b be f7 6c d2 3d e5 f0 d1 bd b3 1c 7e 3d
       -0.19862203 0.1027469 -0.10251025 0.06203909
0000f0 cb e0 69 be 48 d5 5b 3d b0 77 45 bc f8 06 49 be
       -0.22839658 0.053670198 -0.0120524615 -0.19631565
000100 76 dc 22 be b4 71 a8 bd f1 60 81 be 68 a2 5a be
       -0.15904412 -0.08224812 -0.25269273 -0.21351016
000110 b9 4a 7a be b6 96 11 be ec 37 fc ba 16 fc e4 bb
       -0.24442567 -0.14217648 -0.001924274 -0.006988059
000120 05 fa 0e be 61 ed 89 be 39 70 2d be bf 21 e9 bc
       -0.13962562 -0.26938918 -0.16937341 -0.028458474
000130 a1 f2 2a bd 8b 5a 53 3c 5b b9 8e bd 21 1a 57 bd
       -0.041735295 0.012900005 -0.069689475 -0.052515153
000140 2c ec 8d bd b7 01 2b be d1 cb 4d be 59 f9 56 3d
       -0.06929812 -0.16699873 -0.20097281 0.05248389
000150 ef 58 93 be b4 81 29 be af 0e 85 bd 8f 87 98 3d
       -0.28778788 -0.16553384 -0.06496941 0.07447731
000160 b6 d3 19 3c 5c c5 f9 bd b5 ec 71 bc 4f a5 be bd
       0.009388855 -0.121958464 -0.014765908 -0.09308874
000170 a8 06 43 bc 43 33 ae 3d 72 34 3a be 8c cb 4d be
       -0.011903442 0.08505871 -0.18184069 -0.20097178
000180 19 5e b2 bd 81 7f 46 be 03 da 6b be b4 e7 3a be
       -0.08709354 -0.19384576 -0.23032384 -0.1825245
000190 26 b9 65 bd ee fa 86 3d b5 c4 37 bd be 31 d4 bd
       -0.056084774 0.0659083 -0.04486533 -0.1036105
0001a0 1a c0 e6 3d 1d 58 11 be 1c a7 10 bc f7 6c 40 3e
       0.11267109 -0.14193769 -0.0088289045 0.18791567
0001b0 d0 94 bf 3c 1a 7d ff bd 38 45 8a 3d 62 9c e0 3b
       0.023386389 -0.12475033 0.06751484 0.00685458
0001c0 ca a7 69 3d 59 8d 3e 3d 96 ce 25 3e 01 f4 31 3e
       0.05704478 0.04652152 0.16192088 0.17378236
0001d0 83 af f6 3c b7 3b de 3c 15 5a 93 bd 51 8c 07 3e
       0.030112987 0.027128084 -0.07194916 0.1323712
0001e0 09 06 09 be 98 97 d7 3d 12 8f 15 3e 5c a2 f9 bc
       -0.13381208 0.10526961 0.14605358 -0.030472927
0001f0 3c 2f 99 3c 9e 59 a9 3c 2e fd e5 3a 8e c2 57 bd
       0.01869928 0.020672616 0.0017546767 -0.052675776
000200 1b fa 70 bc ab 09 14 bd 1a a5 bb bd f4 5e ea bc
       -0.014708067 -0.036142033 -0.0916235 -0.02860973
000210 f1 c6 ca ba 89 12 8d bd 17 95 bc 3d d0 ae 66 3c
       -0.0015470666 -0.06888301 0.09208124 0.0140797645
000220 b5 6c 2f 3e 36 62 19 be a6 f2 e8 3d 25 e9 21 be
       0.17131312 -0.14978871 0.113744065 -0.15811594
000230 3f 08 01 3d 6e bf 1d 3d 1a 99 3b bd b3 ac 55 3e
       0.031502005 0.03851264 -0.045800306 0.20866661
000240 0f a0 52 3d e1 3d e0 bb 49 71 08 3e 1d 12 57 3d
       0.051422175 -0.006843314 0.13324465 0.05250751
000250 44 bf 90 bd 4e 9d 2f 3d fb 4c ae be 4a e3 cb bd
       -0.07067731 0.042874627 -0.34043106 -0.09955461
000260 16 da 9e bd dc a3 16 be 0c c4 11 3d b7 68 c0 3c
       -0.0775644 -0.14710945 0.035587355 0.023487432
000270 72 1f b4 3c 6d cc 93 bd c4 2a f1 bd ca 7b 4e 3d
       0.02198765 -0.072167255 -0.11775735 0.050411023
000280 a7 1d 82 be ae 77 01 be ab f2 3f be b8 0e 3c be
       -0.25413248 -0.1264331 -0.18744914 -0.1836499
000290 92 28 07 be b2 53 0a bd f1 c6 b8 be 64 62 ce be
       -0.1319907 -0.033771224 -0.3608928 -0.4030944
0002a0 ae 4a 75 be 9a 96 bc 3d 3f cb 38 3d 1d d3 ce 3d
       -0.2395427 0.092084125 0.045115706 0.100988604
0002b0 84 6f 15 be 53 ec 86 be 2a e9 36 be d5 9e 7f be
       -0.14593321 -0.26352176 -0.17862383 -0.24962933
0002c0 2a da 59 be cb bc 9c 3d 62 b8 a2 be aa 11 96 3d
       -0.21274629 0.07653197 -0.31781298 0.07327588
0002d0 f3 1c 10 be df 72 09 be 90 ca 0f be 95 5f 63 bd
       -0.14073543 -0.13422726 -0.14042115 -0.055511076
0002e0 75 69 44 be 79 db 04 be 89 86 38 3d bf 66 f0 bd
       -0.19180854 -0.12974347 0.045050178 -0.11738347
0002f0 4c df e4 bc 23 d5 d7 3d 85 a7 4a bd 94 55 86 bc
       -0.027938507 0.105386995 -0.049476165 -0.016398229
000300 f9 8e 0b 3d 7e 85 ae 3d fe 1e 82 be ae f5 78 3c
       0.034071896 0.08521555 -0.2541427 0.015195293
000310 0a 7f e5 bd 89 bc 8a be cb 70 e9 be a9 a2 41 be
       -0.112058714 -0.27096966 -0.45593867 -0.18909706

lstm_arch.bias_hh_l1 f4 [200]
000000 9e 65 52 be e2 a9 23 be a0 78 d6 3c da 24 1c be
       -0.20546576 -0.15982774 0.026180565 -0.15248433
000010 4c 00 8f bd 8f c6 c1 3d 77 f9 10 be 2e 0f c8 bd
       -0.069824785 0.094617 -0.14157663 -0.0976852
000020 df 5a 84 be 80 5b f3 bd e8 cb e0 be 88 bf 1c be
       -0.2585058 -0.118826866 -0.43905568 -0.15307438
000030 14 75 1f 3d aa 60 17 be 93 db d5 3c 41 c2 af 3d
       0.038930014 -0.14782968 0.026105678 0.08581973
000040 95 a7 ca be c2 0f a7 be 0b f3 e5 be d1 3e 3b be
       -0.3958098 -0.3262921 -0.4491199 -0.18285681
000050 73 99 ac bd 26 55 b8 bc 13 de 18 be 99 81 5b be
       -0.084277056 -0.02250154 -0.14928465 -0.21436156
000060 0d ae 75 be 81 29 84 be 4c 44 bc be e0 5a 65 bd
       -0.23992176 -0.25812915 -0.36770856 -0.05599487
000070 3b d4 01 be a1 65 12 be 54 c7 d9 bd 4f ea eb bd
       -0.12678616 -0.14296581 -0.10633722 -0.115193
000080 1a 08 9a be 19 9f f0 3c 08 d6 ec bd c1 2f d2 3d
       -0.30084306 0.029372739 -0.11564261 0.102630146
000090 28 98 7f 3a fe e6 8d bd 5c a0 63 bd a9 8d fb 3c
       0.0009750151 -0.06928824 -0.055572852 0.030707197
0000a0 50 9a aa bb 52 0f 12 be 20 6f fb bc ef 07 1f bd
       -0.0052063838 -0.14263657 -0.030692637 -0.038825925
0000b0 8a 8b b3 be ab 5c 5d bd 60 1a f9 bd d0 2b 91 be
       -0.35067397 -0.054043453 -0.12163234 -0.2835374
0000c0 97 f9 b1 be 3f 25 77 be 89 cc 5f be 4f 81 c9 bc
       -0.34760734 -0.24135302 -0.21855368 -0.024597792
0000d0 dc a2 cf bc ce 69 d5 3c 2e ab c6 bd ab f8 e5 bd
       -0.025346212 0.026051428 -0.09700619 -0.1122907
0000e0 41 70 b9 bc 1f 90 f2 3d ab 78 ec bd 2d f8 e0 3d
       -0.022636535 0.11843895 -0.11546453 0.10984836
0000f0 be 70 c2 be 08 8a 41 3d 6e 97 4a be 5c 3e fd bc
       -0.3797664 0.047250777 -0.19784328 -0.030913524
000100 de 2a d7 bd 2a 23 13 bd b5 1f a7 be c0 fa 8b be
       -0.10506223 -0.035922207 -0.32641378 -0.27339745
000110 94 11 08 be cd 0e b1 bd 39 52 ff bd a1 af ff bc
       -0.13287956 -0.08645401 -0.124668546 -0.031211676
000120 34 e2 ad 3c 9e 97 46 be 08 40 86 be e8 ee 2d be
       0.021226026 -0.19393775 -0.26220727 -0.16985667
000130 32 f1 c6 bd de db 29 be a7 d4 6a be c8 f6 f2 bd
       -0.09713973 -0.16587779 -0.22932683 -0.11863476
000140 7c 44 ac be c9 b0 93 bd 7f f8 0f be 08 e1 00 be
       -0.33646 -0.072114535 -0.14059637 -0.12585843
000150 eb 2e 33 bd 29 af ce bd 8c 12 09 bd b1 3e cb bb
       -0.043745916 -0.10092003 -0.033464953 -0.0062025418
000160 1c 55 c5 bd 98 5b 44 bd 15 a7 b9 bd 21 7d 06 bd
       -0.09635374 -0.047938913 -0.090650715 -0.032834176
000170 08 b6 c7 bb 80 c5 06 be 7d 8c 82 be ce 71 4c be
       -0.006094698 -0.13161278 -0.2549781 -0.19965288
000180 9c 94 04 be a0 0f 41 bd 9d 56 d5 be 4e 81 47 be
       -0.12947315 -0.04713404 -0.41667643 -0.1948292
000190 50 70 44 3d ce 3f a0 3d 97 81 0a 3d 57 97 69 bd
       0.047958672 0.0782467 0.033814993 -0.057029095
0001a0 8a a2 d2 3d ca 8e 97 bd 04 f7 e9 3d 0e ac 46 bd
       0.10284908 -0.07400282 0.114240676 -0.048503928
0001b0 d4 54 38 3d 89 ed 25 be 81 22 a7 ba 7c 76 ea bd
       0.045002773 -0.16203894 -0.0012751372 -0.1144838
0001c0 64 8f b6 bd 76 3a d9 bd d3 3a ad bd 55 5a 0e 3e
       -0.08914068 -0.10606854 -0.084584855 0.13901646
0001d0 9d 78 91 bc cb a1 a6 3c ef 10 e2 3b db 65 b8 3d
       -0.017757708 0.02034082 0.0068989913 0.090038024
0001e0 f1 1c 62 3d d2 61 22 3e 81 62 83 bc 24 63 f1 3c
       0.055203382 0.15857628 -0.016038181 0.02946622
0001f0 76 34 8a bd 8d 28 95 3c 7e 66 c8 3b 5c cc c1 bc
       -0.067482874 0.018207813 0.0061157336 -0.023657016
000200 34 96 e8 3c 14 9c 1f be 52 a3 41 3d 68 a7 05 3d
       0.028391935 -0.15586883 0.047274895 0.032630354
000210 54 5c 9b bb 5b 78 ec bd e5 00 c8 bd 8a 7d ac bd
       -0.004741231 -0.115463935 -0.097657956 -0.08422382
000220 9b 13 0b 3e 5a 66 44 be dd 53 44 3e 91 aa 44 be
       0.13581698 -0.19179669 0.19172616 -0.19205691
000230 6a 21 be 3d 1b 23 14 3e b6 a8 b5 3d 30 4b 8c 3d
       0.09283717 0.14466517 0.0887007 0.068502784
000240 65 e4 1c bd d1 08 9c bc b9 82 ef 3d af f8 0f 3d
       -0.03830375 -0.019047173 0.11694855 0.035149273
000250 a3 dc 06 3d b6 b3 3a 3d 09 a6 a2 be 0b 03 1a be
       0.03292526 0.045581542 -0.317673 -0.15040223
000260 17 43 ba bc c1 eb 19 bd 19 9d b2 3d 40 c3 2b bd
       -0.022737069 -0.037578348 0.0872137 -0.04193425
000270 16 1e 06 bc ba a0 d6 3c 99 1c 02 be f5 23 c7 3c
       -0.008185884 0.026199687 -0.12706222 0.024309138
000280 dd 85 af be b7 96 7c 3d c9 d9 78 3d c9 1e 8b 3d
       -0.34281817 0.06166717 0.06075457 0.06792981
000290 bf 04 79 bc 41 7b b7 3b 2e 3b 6c be e4 7f 8c be
       -0.015198885 0.00559941 -0.2306945 -0.27441323
0002a0 96 cb c6 be a6 b9 cc bd 57 ae ab bd 4b b5 ed bd
       -0.388272 -0.09996347 -0.08382862 -0.116068445
0002b0 a6 e8 eb bc 72 f6 9b be e6 77 3a be 52 b8 f2 bd
       -0.028797459 -0.3046146 -0.182098 -0.118515626
0002c0 f0 f7 b1 be 8c b9 1e 3d 14 9d 76 be 3a eb c0 bd
       -0.34759474 0.03875117 -0.24083358 -0.09419866
0002d0 79 18 34 be 93 44 cb bd ec e2 6c be 64 54 3d be
       -0.1758746 -0.09925189 -0.23133439 -0.18489224
0002e0 4a 8e 68 bd 46 62 0e bd 25 44 21 3d a1 e4 83 3d
       -0.056776322 -0.03476169 0.03937163 0.06440092
0002f0 75 60 0c be e1 bb e1 3c bd 76 5a bd 04 92 a1 3c
       -0.1370867 0.027555408 -0.053335894 0.019722946
000300 6d c0 54 be dc 07 8c 3b 1b a1 86 be a3 fa a6 bd
       -0.2077653 0.004273398 -0.2629479 -0.08153274
000310 96 c6 4d bd e7 87 47 be cd 7d 86 be 44 44 9d bd
       -0.050238214 -0.19485436 -0.26267853 -0.07679036
