pytorch_lightning/experiment_framework/results/exp_0/lightning_logs/version_2/checkpoints/epoch=49-step=4000.ckpt (torch, 36611 bytes, 35 tensors)

lstm_arch.weight_ih_l0 f4 [40, 6]
000000 a1 a3 d9 3d 77 23 1b 3c f7 f9 42 be aa 4d 5a 3d
       0.10626913 0.009468905 -0.19040667 0.053296722
000010 25 9c 85 bd 64 99 9b 3e ef 2f 56 3e 0c 3d c7 3e
       -0.06523923 0.30390465 0.20916723 0.38913763
000020 a1 9a 66 3e 9c 9e 4d 3e 9c 5e b2 3e a1 72 0a 3e
       0.22519924 0.20080036 0.34837806 0.1352029
000030 7b 6e 9a 3d 10 eb 31 be fe 71 51 bd c0 e8 b8 be
       0.07540604 -0.17374825 -0.051134102 -0.36115074
000040 10 ef a4 be a8 54 36 bd 51 83 84 3e cb 30 f7 3e
       -0.3221364 -0.04451433 0.25881436 0.48279414
000050 f6 52 fd 3e ce 1a b8 3e 95 ab b7 3d 8b 58 0a be
       0.49477357 0.3595795 0.089682736 -0.13510339
000060 42 ae c6 3e 2a e5 86 3e 63 0e f2 3e 46 6f 11 3f
       0.38804823 0.26346713 0.472766 0.56810415
000070 7c 48 87 3e 6c 22 aa be 3f ec a3 3e 93 a9 39 3f
       0.2642249 -0.33229387 0.3201618 0.72524375
000080 b4 83 6d 3e 6a 09 15 3f e3 91 8e 3e 94 2a 12 be
       0.23194772 0.5821749 0.27845678 -0.14274055
000090 4d a3 e0 3e 36 49 71 3d a3 b4 63 3d 74 26 ee 3e
       0.4387459 0.05890771 0.05559219 0.46513712
0000a0 9e c7 cc 3d c9 37 89 3d 7f ee 0c 3e 89 3b 94 3e
       0.099990115 0.06700093 0.13762854 0.28951672
0000b0 24 e4 e7 bd fc d2 ed bd 6d 8f a0 3e 07 61 7e bd
       -0.11322811 -0.11612508 0.31359425 -0.06210425
0000c0 cc 7d 0e bf 7b 63 6a be c0 66 7f be 41 d6 1c bf
       -0.556607 -0.22889511 -0.2494154 -0.61264426
0000d0 d9 41 93 be 54 c0 d0 3d aa bb 04 3f 5b 35 b1 3d
       -0.28761175 0.10192934 0.5184885 0.08652755
0000e0 91 07 fa 3e da 5d 60 3e a6 c1 b7 3e 74 38 1d bd
       0.48833898 0.21910802 0.3588993 -0.038383916
0000f0 15 7e 96 3d df c2 aa bc 75 0d db bd fd 88 80 3e
       0.07348267 -0.020844875 -0.10695926 0.25104514
000100 a5 bb 84 3e a3 2c 3c 3d 7e c4 8f 3b c8 12 39 3d
       0.2592441 0.045941006 0.0043874374 0.045183927
000110 bd 54 c3 3e 32 83 56 3e a5 cf ba 3e 5c 01 15 3d
       0.38150588 0.20948485 0.36486545 0.03637825
000120 85 05 3f bf af 01 40 bf dd f4 b7 be a0 15 12 bf
       -0.746178 -0.7500257 -0.35929003 -0.5706425
000130 82 97 ac be 70 4b 24 3e 8a 32 ca 3e d0 f9 c7 3b
       -0.3370934 0.16044402 0.39491683 0.006102778
000140 fa 40 b0 3d 0e 0d 9a 3d b9 3a 3c 3d 19 53 6e be
       0.08606143 0.07522021 0.04595444 -0.23273887
000150 40 79 2e 3e 07 68 99 3d 32 8c 0e 3f 20 07 93 3b
       0.1703844 0.07490545 0.5568267 0.0044869334
000160 76 4c 0d 3f 17 90 d1 be b4 ba cf 3c 1d 31 f9 3e
       0.55194795 -0.40930244 0.025357582 0.48670283
000170 f0 a6 8f 3c 45 df b3 3e 6b 2b 52 3e e5 77 db bd
       0.017535657 0.3513128 0.20524375 -0.107162274
000180 1f 48 b4 3e ab 35 d8 3d f1 2d 08 3f b0 be bb 3e
       0.35211274 0.10557111 0.531951 0.3666892
000190 ab 2b e5 3d a7 13 50 be 2f cc 7f 3c 5b 40 65 bd
       0.1118997 -0.20319997 0.015612646 -0.055969577
0001a0 5a 18 61 3e 67 f1 0d 3e 7e 67 2c 3e 32 30 0c be
       0.21981946 0.13861619 0.16836354 -0.1369026
0001b0 1f 4c 2d bf b5 4a 3c bf 26 21 0d be ed 3e 15 be
       -0.67694277 -0.73551494 -0.13782176 -0.14574786
0001c0 66 67 3c be 5f d8 2a 3d 69 6f e5 3e fd 32 19 3e
       -0.18398818 0.041710254 0.44811562 0.14960857
0001d0 18 92 ac 3d 14 71 03 3f 1b 48 1e 3e 27 eb bc bd
       0.08426303 0.5134442 0.15457194 -0.09224539
0001e0 28 27 87 be d2 80 99 be 08 60 b7 bd e9 6c 9d be
       -0.2639706 -0.29981095 -0.089538634 -0.30747154
0001f0 67 96 9b 3b da 2f a0 be cf 70 dd be da 9e e1 bb
       0.004748154 -0.31286508 -0.4325013 -0.0068853917
000200 99 70 19 bd 36 49 a5 3c 1f d9 64 be 0e 96 9d 3e
       -0.037460897 0.020176511 -0.2234845 0.30778545
000210 4c 51 78 be 45 5e de be 52 4c c3 be bb ed f2 be
       -0.24249762 -0.43431297 -0.38144165 -0.47447
000220 4e 64 12 be 99 90 ce bd 1f 6a e5 be 73 98 d6 be
       -0.14296076 -0.100861736 -0.44807526 -0.41913185
000230 18 49 2e 3d 3d 4f 2f be 60 9c 00 bf 25 ac 88 3e
       0.042550176 -0.17120071 -0.5023861 0.26693836
000240 1a c8 74 3d 3a f4 94 be 49 1b a2 be 5f 46 9e be
       0.059761144 -0.2909258 -0.31661442 -0.30913064
000250 93 91 d8 be 98 7c c1 bc f2 ad 0d be 15 e6 e5 be
       -0.42298564 -0.023618981 -0.13835886 -0.449021
000260 cd 9c 93 be a3 82 ca be 47 e4 92 be d7 09 83 be
       -0.28830567 -0.39552793 -0.28689787 -0.25593445
000270 18 6e 10 3d bc 53 42 3d 6b 70 b5 be 43 d3 cf be
       0.035261244 0.047443137 -0.3543733 -0.40590867
000280 50 99 cf be 1a b3 53 3e d8 ab e2 be 53 32 83 be
       -0.40546656 0.2067379 -0.4427173 -0.25624332
000290 d7 cc c1 be 22 ba ce be db 19 90 bd db 55 96 3e
       -0.37851593 -0.40376383 -0.070361815 0.29362378
0002a0 11 78 c5 3e fe 4b 11 3d 7a 99 a6 3e c4 63 9f 3e
       0.38568166 0.035472862 0.32538968 0.31130803
0002b0 0b c9 cc bd 9d 0c 8a 3e bb 56 b6 3e 16 43 e7 3e
       -0.099992834 0.26962748 0.35613045 0.4516837
0002c0 7b 2f cd 3e 80 7c 88 3e f7 f6 81 bd bc 79 04 3e
       0.40075287 0.26657486 -0.06345933 0.12937063
0002d0 09 fc d5 3d 94 25 24 3e 52 60 62 3e b3 e6 95 3e
       0.104484625 0.1602996 0.22107056 0.29277572
0002e0 1f c9 8c be 00 d7 f3 bc bc e2 f3 3e c6 be a4 3e
       -0.27497193 -0.029765606 0.47633922 0.321768
0002f0 1c db 39 3e ef ca 89 3e fd c4 a4 3e 67 31 f3 3d
       0.1814999 0.2691264 0.3218154 0.11874657
000300 f0 c4 8d be 37 8f 04 3e b8 f7 69 3e a5 a3 52 be
       -0.27689314 0.12945257 0.22848403 -0.20570238
000310 63 76 f0 3d c9 e3 bf 3c 27 4c 68 3e 02 1c db 3e
       0.117413305 0.023424046 0.226853 0.42794806
000320 9d 33 f0 3e 86 1b 65 3e 8d 50 cc 3e 87 3c 56 be
       0.46914378 0.2237378 0.39905205 -0.20921527
000330 84 ea 0b 3e fb 71 e7 3e 1e 73 0c 3e bf 7b da 3e
       0.1366368 0.45204148 0.13715789 0.42672536
000340 b0 b1 53 3e 16 67 2f be e0 f5 5c 3e 0c d0 b3 3e
       0.20673251 -0.17129168 0.21578169 0.35119665
000350 81 c9 82 3e 11 88 08 3f a7 f7 50 3f 69 3a aa 3d
       0.2554436 0.5333262 0.8162789 0.08311922
000360 e6 60 0b 3f f0 76 12 3f 5b 4c 94 3e 50 8d e0 3e
       0.5444473 0.57212734 0.28964505 0.43857813
000370 59 70 dd 3d 29 5e 03 bd 1a 3e c2 3e 29 d2 7d 3e
       0.10812444 -0.03207222 0.37938005 0.24787201
000380 82 ed 60 3d d4 15 90 3d ca 17 9b 3e cc 42 c7 bc
       0.054914005 0.070354134 0.30291587 -0.024323843
000390 3b 8e b2 be 51 0a 15 bf f5 bf 76 be 29 76 ff be
       -0.34874138 -0.58218867 -0.24096663 -0.49894837
0003a0 a1 b5 17 bf 8e 27 e1 bc 8d 0e 99 3e 32 bb a7 3d
       -0.5926152 -0.027484681 0.29893914 0.081900015
0003b0 b7 71 d1 3e 84 4c 9b 3e 0f ce 01 3f d3 1a 81 be
       0.4090707 0.30331814 0.50705045 -0.25215778

lstm_arch.weight_hh_l0 f4 [40, 10]
000000 a6 81 fd bd 2d 25 ae 3d 0d a2 bb 3e a0 cf 2b bc
       -0.12378244 0.085031845 0.36647072 -0.010486513
000010 52 f8 6a 3e 60 ce 43 be 46 df 3a bd 08 94 7b 3e
       0.22946289 -0.19121695 -0.045623086 0.24568188
000020 a4 a5 61 be 6c d4 0c 3e a6 80 5b be fb b3 a2 3c
       -0.22035843 0.13752908 -0.21435794 0.019861212
000030 1d 1f 97 3c a3 e3 30 be 1f c1 89 3e 7b 8f 18 be
       0.018447453 -0.17274337 0.26905152 -0.14898483
000040 ff 85 7c be ae f6 c3 be ad f8 e6 bc dc d8 ef 3d
       -0.2466049 -0.3827414 -0.02819475 0.117112845
000050 28 3c 12 3f 03 65 96 be 07 1c 41 3f 06 4a e7 be
       0.5712304 -0.2937394 0.7543339 -0.45173663
000060 86 1c 13 bf 55 69 6f be a0 8b 22 be 2d 69 9a be
       -0.574654 -0.23380025 -0.15873575 -0.30158368
000070 17 69 2b be 61 7f 9f bc 6f 19 87 3e 68 a7 82 3e
       -0.16739307 -0.019469919 0.26386592 0.25518346
000080 07 76 69 3e 9b 72 11 be 57 51 27 3e c2 cb 2c be
       0.2279893 -0.14203875 0.16339622 -0.16874602
000090 08 db 01 be d8 8b 9f 3d 57 be a8 3d 75 e4 5f be
       -0.1268121 0.07790345 0.082394294 -0.21864493
0000a0 14 f0 9c be 6d 4c 23 3d 33 29 e3 3d be 93 71 3e
       -0.30651915 0.039867807 0.110918425 0.23591515
0000b0 2b b8 85 bd e5 63 00 bd 25 f8 12 be 5e 0e 8a be
       -0.06529268 -0.031345267 -0.14352472 -0.26964086
0000c0 5f 89 9f 3d 6c 43 8e 3e 7f 0f c2 be 66 04 bc be
       0.07789873 0.27785814 -0.37902448 -0.36722106
0000d0 b2 7c b2 3e a3 3e 91 be d3 04 15 bd 77 f6 27 3e
       0.3486076 -0.283681 -0.036381554 0.16402613
0000e0 00 b0 2d 3d 81 cd 1b 3d 81 f6 a2 3b a1 35 8a 3d
       0.042404175 0.03803778 0.004973233 0.0674851
0000f0 9d 8d 48 3d 4b b4 2a be df 8d 13 3e 54 57 14 3e
       0.048963178 -0.16670339 0.14409588 0.14486438
000100 d6 55 dd be 8c e1 3e 3e 30 ea 21 be ec b1 d4 3c
       -0.4322955 0.18640727 -0.15811992 0.025963746
000110 2d 43 3c be 28 e8 97 3e 1b e1 31 3d 2e e5 17 bf
       -0.18385 0.2966931 0.043427568 -0.59334075
000120 24 98 87 3e 24 01 cd bd 27 7c c6 be 08 e7 bc be
       0.26483262 -0.10009983 -0.38766596 -0.36895013
000130 c4 b2 ef be 62 32 4c bd c7 62 11 be 05 74 80 3d
       -0.46816075 -0.049852736 -0.14197837 0.06272129
000140 21 59 fb 3e a4 01 3f 3c b3 53 d7 3d de 6c 1c 3d
       0.49091437 0.011658106 0.10514011 0.03818976
000150 90 9b 44 3e 0a 8b 10 be c6 45 ba 3e cd cf 76 bd
       0.19199967 -0.14115539 0.36381358 -0.060256768
000160 cd a1 f4 be c4 53 b9 be 0f fd ff bd 6e c6 0f 3e
       -0.47779694 -0.3619672 -0.12499439 0.14040539
000170 20 be c8 bd 02 79 18 bd 53 4d bb bd 3f f9 24 3e
       -0.098018885 -0.037224777 -0.09145608 0.16110705
000180 61 5d 93 3d 48 b1 2c be 35 2f 97 be b7 ae a4 be
       0.07195545 -0.16864502 -0.29528204 -0.32164547
000190 10 8c 9d 3e 78 69 35 3d 48 93 f4 3e 2c ab 0c be
       0.30770922 0.044290036 0.47768617 -0.13737172
0001a0 32 13 ae 3e ed 63 53 3e b3 da 2a be 94 7f b4 3e
       0.3399902 0.20643587 -0.1668499 0.35253584
0001b0 82 d3 b6 3e 64 f2 46 be 38 88 e4 3d b3 11 5c be
       0.35708243 -0.19428402 0.11158794 -0.21491127
0001c0 7d 8f 27 be ff 2c 55 3e 50 68 26 3e 1b 26 1f 3e
       -0.1636333 0.20817946 0.1625073 0.1554188
0001d0 fe 3e 46 be c7 26 09 be 72 3b 1a 3e da a1 b5 3e
       -0.19359967 -0.13393699 0.15061739 0.35475045
0001e0 74 0f 5e 3f 34 b1 f2 3e 20 d3 10 3f 11 da 70 3e
       0.8674233 0.4740082 0.5657215 0.23520686
0001f0 43 39 03 3f 57 cc 22 3f c0 cb 2d 3e 79 be cd 3d
       0.5125925 0.6359305 0.16972256 0.100460954
000200 b3 2d a3 be 82 b0 17 bf a9 4a cb 3e b9 32 71 3e
       -0.31870803 -0.59253705 0.397054 0.23554505
000210 f5 3a 35 be 9b 8d 92 be 4b f4 b6 bc 8f 42 b7 3e
       -0.17698272 -0.2862366 -0.022333285 0.35792968
000220 5c 73 77 bd 09 9d 20 3e 3f 57 97 be 6a 26 30 bd
       -0.06041275 0.15684904 -0.2955875 -0.043005385
000230 f4 66 c3 3d 0d 50 06 3e 45 26 00 3b 31 95 bc 3d
       0.09541121 0.13116474 0.001955406 0.092081435
000240 b7 51 23 3e 63 66 22 3e 91 94 4e be 6a 3b fc bc
       0.1594914 0.1585937 -0.20173861 -0.03079005
000250 de 03 c4 3e 88 75 f0 3d 4c 2f 23 3e cb cb 54 be
       0.382842 0.11741167 0.15936011 -0.20780866
000260 7a 6e e0 be 56 93 82 3d c0 8c 06 3e ba ce be 3e
       -0.43834287 0.06375758 0.1313963 0.37267095
000270 e8 e7 1d be 30 9b 02 3d 2c cf 9f 3c 23 da 04 3e
       -0.15420496 0.03188628 0.019507967 0.12973838
000280 97 0c b2 3a 58 ff 0f 3e 2d 3b a4 be 34 b0 bf 3d
       0.0013584074 0.1406225 -0.32076398 0.0935978
000290 54 c0 52 3c d7 9d ba 3e f2 48 84 be 38 fd 07 3e
       0.012863237 0.36448547 -0.25836903 0.13280189
0002a0 ef be dc bd 57 ac 83 bd 6a e6 4d bd 0c c3 26 be
       -0.10778605 -0.064293556 -0.050268568 -0.16285342
0002b0 e7 e9 97 3e 48 18 7e bd 69 4a 66 3d 0b 2d a5 be
       0.2967064 -0.062034875 0.056223307 -0.32260928
0002c0 62 e1 28 be 1a 3e cb bd 8e 01 2f be 20 52 80 3e
       -0.16492227 -0.09923954 -0.17090437 0.25062656
0002d0 4a 1f 83 3e ad 8b ff 3e b9 1f 38 3f 2c fe 23 3d
       0.2560981 0.49911252 0.71923405 0.04003732
0002e0 9c 86 a2 3e df a0 4f 3d f0 a0 11 3f 31 3f f7 3e
       0.31743324 0.050690528 0.56886196 0.482904
0002f0 5a 05 41 be 32 49 64 be 7b 4e 8d 3d e5 14 29 3e
       -0.18849698 -0.22293547 0.068997346 0.16511877
000300 1d ea 43 be a6 d0 6c 3e 2c 1b 04 bd a4 61 e6 3e
       -0.19132276 0.23126468 -0.032252476 0.4499637
000310 87 73 61 3e b1 a7 e5 3c 9e 20 e6 bd 82 53 0d 3e
       0.22016726 0.028034063 -0.1123669 0.13801387
000320 df 72 54 be 09 90 d3 be 3d ca 87 3e 85 21 fe 3d
       -0.20746945 -0.41320828 0.26521483 0.12408737
000330 ff 4d ff bd 80 d2 be 3d dc a9 97 bb a1 91 24 be
       -0.124660484 0.093174934 -0.004628403 -0.16071178
000340 71 7e 0b bf d0 ca ab 3d b8 20 e5 3e 3b d1 a8 bd
       -0.5448981 0.08388293 0.44751525 -0.082430325
000350 06 97 ea 3e e2 6b 29 bd 70 33 2b 3e 12 45 39 3e
       0.45818347 -0.04136265 0.1671884 0.18092754
000360 c4 7b 7e 3e 27 e3 85 bd 21 cb 1a be 33 14 56 be
       0.248519 -0.065374665 -0.1511655 -0.20906143
000370 91 e4 b2 be a1 cd 37 be c6 67 8f bd 53 62 d1 bd
       -0.34940007 -0.17949535 -0.07002215 -0.10223832
000380 47 eb cf be 3d 0a c0 be 3f 5f 89 be 20 95 34 bf
       -0.4060919 -0.3750781 -0.2683048 -0.70540047
000390 6c a3 c5 be e1 85 70 3e c5 88 7a be 8c 88 e7 be
       -0.38601243 0.23488571 -0.24466236 -0.45221364
0003a0 1a 78 9e 3e 3e b1 79 3c 27 4a b6 bd ee b4 b7 be
       0.30951005 0.015240012 -0.08900862 -0.35880226
0003b0 79 9b 83 be b9 4a 39 be 56 d7 df 3c da a2 57 3e
       -0.25704554 -0.1809491 0.02732436 0.21058217
0003c0 f7 df 97 be 75 1f d1 bc b1 21 c5 3e bd 58 bf 3c
       -0.2966306 -0.025527695 0.38502267 0.023357743
0003d0 fd a9 0b bd 46 30 c4 be 36 6f 93 be 85 c3 c2 be
       -0.03409766 -0.3831808 -0.28795785 -0.38039795
0003e0 ca 27 d2 3d f2 82 0f 3e 86 81 5d be cc 11 01 bf
       0.102614954 0.14014795 -0.2163144 -0.5041778
0003f0 95 82 00 3d 46 c0 fd be 9c 82 ce 3c 25 47 25 be
       0.031374533 -0.49560755 0.025208764 -0.1614042

lstm_arch.bias_ih_l0 f4 [40]
000000 5b c1 39 bd 52 0a fb bd dc 90 bc 3e 82 f7 ba 3d
       -0.045350414 -0.12257828 0.3682927 0.091292396
000010 0c ec 7f be ff 0a bf bd 7e 14 fb 3c 89 f4 46 be
       -0.24992388 -0.09328269 0.03064942 -0.1942922
000020 c6 ca 81 3d 69 ef 8a be 64 07 07 3e 5b 46 8c be
       0.06337504 -0.2713578 0.13186413 -0.27397427
000030 7d 9c 27 be 40 29 aa be 41 c6 ac be 19 d3 fc be
       -0.1636829 -0.33234596 -0.33745006 -0.49379805
000040 ab 6d ca 3d 07 ed fc 3c a6 04 54 3e d2 ef 80 be
       0.09884199 0.030874742 0.20704898 -0.25182968
000050 4b 51 a0 3e 6c ea f1 bd 90 53 0b 3f 95 4e 96 ba
       0.31312022 -0.118122905 0.5442438 -0.0011467511
000060 4b f1 6d 3e 62 de 97 3d 65 25 84 3e e7 25 13 3f
       0.23236577 0.07415463 0.2580978 0.5747971
000070 9d aa 80 be eb e0 80 bc 32 90 8f be bd 33 77 be
       -0.25130168 -0.01573225 -0.280397 -0.2414083
000080 54 7b c9 3c 5f f9 8b 3e 80 44 3c bd 1e aa 86 be
       0.02459494 0.27338693 -0.045963764 -0.26301664
000090 db be eb 3d 1e 9d 30 3d 33 8d 8a bd 32 a4 8b 3d
       0.11511012 0.04311859 -0.06765213 0.06818427

lstm_arch.bias_hh_l0 f4 [40]
000000 c0 c6 b9 bd 71 34 84 be f1 f1 28 bd 5c c4 28 bd
       -0.09071112 -0.2582126 -0.04124636 -0.041202888
000010 5f 25 9e bd d5 0a d8 bc 04 9e 60 be 47 69 cd bd
       -0.07721972 -0.026372353 -0.21935278 -0.10029846
000020 bb 58 80 3d 81 83 81 be 9f 0d ab be 45 1f eb bd
       0.06266924 -0.25295642 -0.3340883 -0.114805736
000030 89 38 26 be 7c c4 aa 3b dd 6a de be e1 52 d3 be
       -0.16232504 0.005211411 -0.43440905 -0.4127417
000040 f9 32 2c be 31 97 43 3d 06 24 5f 3e 55 7e 52 3d
       -0.1681632 0.04775161 0.21791086 0.05139001
000050 35 f7 7f 3c ff 9d 49 bd b9 7c 98 3e a6 72 7b 3e
       0.015622904 -0.049222942 0.29782656 0.24555454
000060 db c0 81 3e 2a 09 a7 3e 89 2a 0e 3d f8 5b af 3c
       0.2534245 0.3262418 0.034708533 0.021406159
000070 e5 86 ce be 66 56 a5 be ee 19 aa be bf c3 f3 3c
       -0.4033729 -0.3229248 -0.33222908 0.029756425
000080 d9 48 a3 3d 8f 25 6c bd 8e 57 82 3e 82 b1 03 be
       0.07972879 -0.057653006 0.25457424 -0.12860683
000090 78 d6 04 be 87 fe 4e 3e 84 e1 57 be d0 df 7b be
       -0.12972438 0.20214282 -0.21082121 -0.24597096

lstm_arch.weight_ih_l1 f4 [40, 10]
000000 41 be 2d 3d 4c bc 8b be 3f dd 0c bf 2c 93 45 bd
       0.04241777 -0.27292097 -0.55025095 -0.048236057
000010 9e b4 c3 be e6 bc d1 be 85 79 e5 be db 1f 7a be
       -0.38223737 -0.4096443 -0.44819275 -0.24426214
000020 19 b7 c4 3e 5c f3 ac 3c 11 41 3d be 14 5f 6a be
       0.38420942 0.021112137 -0.18481852 -0.22887832
000030 d2 24 13 bd 14 1c 0f 3e df 5e 5f bc a7 b2 d1 be
       -0.035923786 0.13975555 -0.013633459 -0.40956613
000040 29 46 9d be 77 9a e5 bd 1d 0f d6 3e 49 c3 a0 3e
       -0.3071759 -0.112111025 0.41808406 0.3139899
000050 17 49 db bc c3 0d a0 bd fd ea 6b bd 2f 3e 9a be
       -0.02676825 -0.07815125 -0.05759715 -0.30125567
000060 bb df d7 be 09 d5 e5 be 66 98 19 be 68 55 af 3d
       -0.4216288 -0.44889095 -0.14999542 0.08561212
000070 3e af 01 3e c5 af 7b 3e ac fe b2 3d ce d7 d3 bc
       0.12664506 0.2457877 0.08739981 -0.02585974
000080 3c 2c 58 be 07 92 ae be c6 37 c7 be 52 24 9a be
       -0.21110624 -0.34095785 -0.3890974 -0.30105835
000090 ed 69 a0 3d b3 1d ba be e7 b5 e1 3e eb 74 a3 3e
       0.07832704 -0.36350784 0.44084093 0.3192514
0000a0 ee 8a 21 3d 12 ee d3 3e 01 58 38 3e ba 32 88 bc
       0.039439134 0.4139257 0.18002321 -0.01662575
0000b0 8d 59 ea 3e e3 c9 17 3e 49 17 0c 3e 57 0b 8e be
       0.45771447 0.14823107 0.13680758 -0.27743027
0000c0 b4 13 a1 3b db ba 0b bf c2 30 7e be d0 32 d9 3d
       0.004915679 -0.54581994 -0.24823287 0.10605395
0000d0 47 18 00 be ba 8f a0 bd 26 c8 7e be 1d 58 9b be
       -0.12509261 -0.07839914 -0.24881038 -0.30340663
0000e0 e5 ce 5e 3d 23 18 26 be b7 2b 18 3e c4 86 92 3e
       0.05439653 -0.16220145 0.14860426 0.28618443
0000f0 d8 07 7c 3e 93 85 0c be 76 ac 0b 3d ac ac 51 3c
       0.24612367 -0.1372283 0.03410002 0.012797516
000100 bc d3 c8 bd d5 cd 85 be 70 1f 20 3e e9 c5 e7 3d
       -0.0980601 -0.261336 0.15636992 0.11317045
000110 ce 0f 50 be 46 d6 01 be 1c 0e 43 3e 6e 22 8f 3d
       -0.20318529 -0.12679395 0.19048351 0.06988989
000120 21 97 c6 be 46 b4 a8 3e b1 27 8b bd 7f 65 d2 3e
       -0.38787177 0.32950038 -0.0679468 0.4109306
000130 6c 08 0d 3f 9b 84 e5 bc 24 dc 99 3d ad 0e cc 3b
       0.55090976 -0.028017333 0.075126916 0.0062273354
000140 2e bb a6 3e a3 2d 45 3e 5b f1 18 3e 96 d5 35 3c
       0.32564682 0.1925569 0.1493582 0.011098286
000150 c9 56 d6 bc 05 fa 80 3d 62 cb bc 3e 27 1b b1 bd
       -0.02616443 0.062976874 0.3687392 -0.08647757
000160 05 03 99 bc 89 47 85 be b9 c2 16 3d 3e bd 69 be
       -0.018678198 -0.2603114 0.036806796 -0.22826096
000170 e5 ce c1 be 9b fb 22 be 5a 10 0f be 70 d3 34 3e
       -0.3785316 -0.15916292 -0.13971081 0.17658782
000180 67 35 fa bb 15 76 3b be 6d cc 5c 3e 17 69 06 3e
       -0.0076357606 -0.18306763 0.21562357 0.13126026
000190 78 ee 33 3e 37 de fc 3d 65 96 61 be b1 64 83 be
       0.17571437 0.123470716 -0.22030027 -0.2566276
0001a0 74 bf b4 be af a7 9d be f6 e4 1c bb 7a cd 77 be
       -0.35302317 -0.30791995 -0.0023940182 -0.24199477
0001b0 a2 b4 25 be c6 69 97 3e d7 43 08 bd a4 7a 06 3e
       -0.16182187 0.29572886 -0.033267822 0.13132721
0001c0 ea 18 41 bd ac b6 2c 3d 2c 08 df be 07 fa f2 bd
       -0.0471429 0.042166397 -0.43560922 -0.11864095
0001d0 02 b2 9a be ec dd 4c be ce ce 33 be 8c 36 9f 3e
       -0.30213934 -0.20006531 -0.17559358 0.31096303
0001e0 35 de 6e be 0b 70 8f be cc 8a 1c bf a8 31 a8 be
       -0.23326953 -0.2801517 -0.6114929 -0.32850385
0001f0 da 47 9b be f1 dd e2 be 4a 11 79 be 4d df c5 be
       -0.30328256 -0.44309953 -0.24323002 -0.38646927
000200 08 d3 97 3e 54 ac f2 3d 88 3c cc 3d 59 fc e3 bd
       0.29653192 0.11849275 0.09972483 -0.11132116
000210 7b 44 0b bf e1 2d b2 be 81 82 11 3b b9 fa 17 be
       -0.5440137 -0.34800628 0.002220303 -0.14841737
000220 4c d1 6e 3d 0c 2a 17 bf c9 d0 64 3e 1f 14 e8 3d
       0.05830507 -0.59048533 0.2234527 0.11331963
000230 ad bc 15 3e d3 72 92 bd 82 84 b4 bc 88 87 ce 3e
       0.14622755 -0.07150807 -0.02203584 0.40337777
000240 d6 cc 8b 3e 7b 09 be 3e 80 da 06 3f c3 fc a5 be
       0.27304715 0.37116608 0.52677155 -0.32419404
000250 e5 e4 99 3e f7 02 ae be 6d 38 93 bd 3f 32 01 be
       0.30057445 -0.33986637 -0.07188497 -0.12616824
000260 af 8a af be 47 9c bc bd bc 78 06 bf 81 d1 d3 be
       -0.34285495 -0.09209495 -0.52527976 -0.41370776
000270 f5 2c ba be 45 f8 02 be 5d e0 9b 3e e7 fe 79 3e
       -0.36362424 -0.1279002 0.30444613 0.24413644
000280 c4 95 9f 3c 2d 15 dc 3e 87 6d f6 bd a0 bf 24 be
       0.019480594 0.42984906 -0.120326094 -0.16088724
000290 2d cb 1d 3e 75 fd 11 be 19 12 90 bc a0 bf d4 bd
       0.15409537 -0.14256842 -0.017586755 -0.10388112
0002a0 83 67 f4 bd 55 e8 0e bb 0c ec e9 3e 2a 37 55 3e
       -0.11933806 -0.002180596 0.45687902 0.20821825
0002b0 50 f3 8c be cf 1c 9c 3e 77 5e 97 3e 48 e6 9d 3d
       -0.27529383 0.3049073 0.29564258 0.07709938
0002c0 96 ee 21 3e 0b c1 3f 3e e5 1d c9 3e eb a7 6e be
       0.1581367 0.18725984 0.3928062 -0.23306243
0002d0 a9 ce 5b 3e 38 d8 f3 3e d9 fd b3 3e 6f 24 91 3d
       0.21465553 0.476259 0.35154608 0.07087027
0002e0 a6 92 92 3e ab 6a e5 3d a0 5d 22 3e 99 90 5a be
       0.2862751 0.11201986 0.15856028 -0.21344222
0002f0 7b b4 cc be d9 80 1c be 96 6d d0 bc a2 0d 68 be
       -0.39981446 -0.15283526 -0.02544288 -0.2266145
000300 e7 72 06 be 3d d5 8e 3c 48 9e 65 3e da cb 63 be
       -0.1312977 0.017435664 0.22423661 -0.22245732
000310 9c 7e 9b bd 5c c3 8c be ca 28 fd 3d dd 5d fa bd
       -0.07592508 -0.27492797 0.123612955 -0.12224934
000320 a3 68 2d be 31 35 c3 be 4c c8 d2 be 04 86 54 be
       -0.16934447 -0.3812652 -0.4116844 -0.20754248
000330 9c 7d e7 be c7 ca 25 be d8 f6 72 be c8 52 e8 be
       -0.4521302 -0.16190635 -0.23726976 -0.45375657
000340 65 bb 18 3e d5 91 da bd 17 d5 b7 bc 6b 68 d5 3e
       0.14915235 -0.106723465 -0.022440476 0.41681227
000350 83 33 0e 3e 84 75 95 3e 47 73 2b 3e 0e ae 63 bd
       0.13886838 0.2919122 0.16743194 -0.055585913
000360 65 73 31 3e c6 5d e0 3d 16 a7 07 3d 6e 28 be bc
       0.17329176 0.10955386 0.03311833 -0.023212638
000370 72 e8 bd be df cf 9b bd 60 51 c7 be d4 40 cd be
       -0.37091404 -0.07608008 -0.38929272 -0.40088522
000380 4f 9a 9a be ed 73 ab bd a2 5f 97 be 3a 21 e2 be
       -0.30195853 -0.083717205 -0.2956515 -0.44165975
000390 97 44 a6 3e 98 89 51 3e 19 7e 04 bf c1 03 17 3e
       0.32474205 0.20462644 -0.5175491 0.14747526
0003a0 a3 02 cd be 02 f7 04 be 4b 25 92 be 40 9e bb be
       -0.40041074 -0.12984851 -0.28544077 -0.36644173
0003b0 77 41 8c be aa a7 b6 be 1d a6 ee 3e 1c c0 30 3e
       -0.27393696 -0.35674793 0.4661111 0.17260784
0003c0 df e7 c3 3d 36 a4 a0 bd 3b c7 01 be ec 61 ab bd
       0.0956571 -0.07843821 -0.12673657 -0.083682865
0003d0 69 8a 6c be e1 02 6a be 7b f6 17 be d3 6b e0 bd
       -0.23099674 -0.2285266 -0.14840119 -0.10958066
0003e0 7f 5b 6a be 3b 6f 26 be 35 6c 12 3e 1e 57 55 3e
       -0.22886465 -0.16253369 0.1429909 0.20834014
0003f0 0d 31 08 3f ec 5b bc 3e fb 0b 10 3e 43 d8 00 3f
       0.53199846 0.3678888 0.1406707 0.5032999

lstm_arch.weight_hh_l1 f4 [40, 10]
000000 01 fe be bd 24 57 cc bd 15 af e6 bd 1a 3a 82 be
       -0.09325791 -0.09977558 -0.11263863 -0.25434953
000010 9d 78 32 3e e6 97 1d 3e ef c3 d7 3c d1 2c 2f 3e
       0.17428823 0.15389976 0.026338546 0.1710694
000020 20 a7 87 3e b0 f7 63 be 53 22 1d bd 17 6f 90 3e
       0.26494694 -0.22262454 -0.038362812 0.28209755
000030 47 2f 8f be b6 9e cb 3c 3a cd f6 3e d2 9d 21 3e
       -0.27965757 0.024855953 0.4820345 0.1578286
000040 94 83 86 bd b2 71 04 bd e8 b3 6b 3e 5f 0e 1f be
       -0.06568065 -0.03233499 0.23017848 -0.15532826
000050 52 75 c3 be 85 ab 8b 3e 7f d4 c7 3c 29 e8 a8 3d
       -0.38175446 0.27279297 0.024393318 0.08247406
000060 a0 6c 39 bd ce 13 49 3c 63 a9 18 3d e8 19 3c be
       -0.04526961 0.012272788 0.037270915 -0.18369257
000070 13 61 87 3e 27 09 76 3d a6 07 30 3d a4 c9 69 3e
       0.2644125 0.060067322 0.042976044 0.22830826
000080 8a 6a 8d 3e 9f 64 3c be d5 34 07 be c3 a2 41 3e
       0.27620345 -0.18397759 -0.13203748 0.18909745
000090 7c 80 92 be c1 24 9e be 5d 29 02 bd 83 54 22 3e
       -0.2861365 -0.30887416 -0.03177773 0.15852551
0000a0 45 8c 04 bf 31 46 91 3e 26 d6 1d bf 22 a8 db be
       -0.51776534 0.28373864 -0.6165489 -0.42901713
0000b0 8c 81 46 3e 64 92 08 3e 35 bf 0b be bd 14 5d 3d
       0.19385356 0.13337094 -0.13647158 0.053974856
0000c0 35 62 ac be b6 bb 66 3e 23 e2 06 be 18 e5 85 3e
       -0.33668676 0.22532544 -0.13172202 0.26151347
0000d0 e1 25 0e 3e 47 31 a0 3e 93 b1 74 3e f2 d2 ae bc
       0.13881637 0.31287596 0.23895864 -0.021340821
0000e0 c7 af 40 bd bd d0 bf 3d 1c 19 0d 3d 77 71 07 bd
       -0.047042634 0.093659855 0.034447774 -0.033067193
0000f0 cb 82 a0 be af b3 a8 3e 05 9e 3b 3d 5c 26 6f 3e
       -0.31349787 0.32949588 0.045804996 0.23354477
000100 d4 0c 57 be 64 81 1d 3e a2 69 46 be f8 34 fb 3c
       -0.21000987 0.1538139 -0.19376233 0.030664906
000110 91 5e 69 3e e1 93 a9 bd 1f d7 16 3d e7 ee e0 3d
       0.2278998 -0.08280159 0.03682625 0.10983067
000120 8d b7 37 be d0 f1 6b be 80 49 cc be 30 f7 0f 3f
       -0.17941113 -0.23041463 -0.39899826 0.56236553
000130 d0 fa f2 3d 6e 8d b2 3c 04 68 af be 3e dc 8f 3d
       0.11864245 0.021795955 -0.34259045 0.0702443
000140 87 62 27 3e 77 e1 df 3e 86 18 c7 be 15 28 81 be
       0.16346179 0.43726704 -0.38885897 -0.25225893
000150 13 05 4a be c6 4a 8c 3e 08 6a a8 be 46 9c 8b be
       -0.19728498 0.27400798 -0.32893395 -0.27267665
000160 cb 7b fe 3d 7e 86 66 3e 94 45 a4 bd 1d 0c 51 be
       0.124259554 0.22512242 -0.080210835 -0.20414777
000170 cd bd 8f 3d bd e0 15 3d c0 3c 54 3d b4 4f 04 bb
       0.070186235 0.03659128 0.05181575 -0.0020189108
000180 22 b7 12 be d9 05 d9 3d e2 0a 17 be b7 30 5c 3b
       -0.14327672 0.105968185 -0.14750245 0.0033598372
000190 83 08 45 3d e8 74 49 bd ce 7e 26 3e fa 2f 9e be
       0.04810382 -0.049183756 0.1625931 -0.30895978
0001a0 26 85 1d be 47 b4 be bd f4 45 87 3c 1b 93 24 3e
       -0.15382823 -0.09311729 0.016512848 0.16071741
0001b0 18 7b 99 3d 29 82 fb 3d 12 d4 74 3d 8f 9d ef bd
       0.074941814 0.122806855 0.05977256 -0.11699974
0001c0 d2 be 01 be 24 37 95 be 5f 5c 8e 3e f1 79 88 3d
       -0.12670448 -0.2914363 0.2780485 0.066638835
0001d0 8f 3e ec be e7 44 05 bd e4 c1 4b 3e 07 08 0b be
       -0.46141478 -0.032536414 0.19898182 -0.13577281
0001e0 c9 bd 97 be 90 61 21 3d db 67 b0 be 22 8b bd 3c
       -0.29636982 0.039399683 -0.34454235 0.023137633
0001f0 72 e7 06 3e 2c 00 60 3e 87 c0 05 bf a7 91 b5 3d
       0.13174227 0.21875066 -0.522469 0.088656716
000200 a6 6e 69 bb 13 01 73 3d 66 07 ef 3d 5b 4f c9 3d
       -0.003561893 0.059327196 0.11671333 0.09829589
000210 b4 f1 7a 3e be f8 cd 3d c2 41 dd 3e 49 9a 5b be
       0.24506265 0.100572094 0.43214232 -0.21445574
000220 86 26 91 be 9b 14 f1 bc 65 e2 76 bb 99 de 1a bd
       -0.28349704 -0.02942877 -0.0037671563 -0.037809942
000230 4f 6c 00 bf f9 30 8f 3e 65 b8 93 be a1 4e 18 be
       -0.50165266 0.2796705 -0.2885162 -0.14873745
000240 5b ab 12 be d6 02 68 3e 2d 3f 88 3e 01 f5 da bd
       -0.1432318 0.22657332 0.266107 -0.10691262
000250 f2 eb b3 3d 16 b1 e3 3e 1f 16 65 be df 40 13 3e
       0.08785237 0.44471043 -0.2237172 0.14380215
000260 2c 6c 4d 3e 47 2b 20 3e 2c b2 04 3e f1 fb 35 be
       0.20060796 0.15641509 0.12958592 -0.1777189
000270 ea 60 09 be ed e9 7d bd c6 9f a1 bd 1e a5 b6 bd
       -0.13415876 -0.061990667 -0.078918025 -0.08918212
000280 c6 b4 be be a2 26 66 3d 29 76 0e 3d ff 22 52 be
       -0.37247294 0.056189187 0.034780655 -0.20521162
000290 c6 2a c9 3d 11 43 ec 3d 86 92 45 be de 59 37 3e
       0.098226115 0.115362294 -0.19294176 0.17905375
0002a0 6b ba 06 be 2c ab 95 3d b4 d0 87 3c 38 bb 0d 3f
       -0.1315705 0.07308039 0.01657901 0.553638
0002b0 bc fa 38 3d 84 d9 ba be 7c 7f 49 be 35 94 12 3d
       0.045160994 -0.36494076 -0.19677538 0.035785872
0002c0 93 5d 13 3e 72 26 70 bd 87 ac 0b be 15 0b 9f 3e
       0.14391164 -0.058630414 -0.13640033 0.31063142
0002d0 94 59 e1 be ec b0 79 3e 2f 55 09 bf 8a 9b 93 be
       -0.44013655 0.24383897 -0.53645605 -0.28829604
0002e0 d4 23 4f be 1b f4 9f 3d 68 27 c1 be 22 16 78 3e
       -0.20228511 0.07810231 -0.37725377 0.24227193
0002f0 70 d8 02 3d 86 0e db 3e c4 95 16 3d 63 b1 bc 3e
       0.031944692 0.42784518 0.03676392 0.36854085
000300 ab ac d7 3d b6 7a 2c be a8 42 5e 3e b4 8b 84 3e
       0.10530981 -0.16843686 0.21705115 0.25887835
000310 71 4e 04 3d c0 aa 01 3e 77 eb c8 3d 97 e6 9f 3e
       0.03230137 0.12662792 0.09810536 0.31230614
000320 97 e6 f2 3c 6f 10 e7 bd 1e d7 62 3c bf 29 50 be
       0.02965097 -0.11282431 0.013845233 -0.20328425
000330 42 8f 98 3d e6 fd 64 3d 20 78 e6 be 48 66 65 be
       0.07449199 0.0559062 -0.45013523 -0.22402298
000340 48 51 b6 3e 40 6f 8b 3e 61 9a 66 be e9 32 47 3d
       0.35608888 0.27233315 -0.22519828 0.048632536
000350 1b 39 c3 bd 94 7c 0d be e1 8c 0f bd 4c d2 10 3d
       -0.095323764 -0.13817054 -0.035046462 0.035356805
000360 e4 e2 a8 3c 9f 90 6b bd 13 8b c7 be 35 b4 4c be
       0.020616002 -0.05751097 -0.38973293 -0.19990619
000370 cc b0 14 be b4 94 01 3e 03 bd b9 3e 95 5f 2c be
       -0.14520568 0.12654382 0.36277017 -0.16833337
000380 0e ec fc 3d d0 45 a4 be 28 cc 06 3e 3c 4e 3d be
       0.12349711 -0.32084513 0.13163817 -0.18486875
000390 e3 95 73 be 02 51 51 be d5 d6 3b be 4c f7 4e 3a
       -0.23787646 -0.20441058 -0.1834367 0.00078951265
0003a0 a2 c8 68 be 16 12 33 3e 91 b0 63 3e 72 b5 77 be
       -0.22732785 0.17487368 0.22235323 -0.2419031
0003b0 f7 8d ae be 2b b5 0e 3d b3 b5 00 3e 10 c9 c5 3d
       -0.34092686 0.034840744 0.12569313 0.0965749
0003c0 18 94 a4 be cb 2b 27 3e c3 bb 1c bd 5e 46 5d 3e
       -0.32144237 0.163253 -0.038265 0.21608874
0003d0 b7 05 db ba 9b 98 86 be ab 36 77 3e ce 35 21 be
       -0.0016710077 -0.26288304 0.24141948 -0.15743181
0003e0 6a c5 dd 3d 1d ac 9d bd 57 c3 9a 3d 32 96 7e 3e
       0.10828669 -0.07698844 0.07556789 0.24861982
0003f0 d6 28 16 bd 74 4d 81 be 4b 62 9a be c7 b3 cb 3a
       -0.036660038 -0.25254405 -0.30153117 0.0015541249

lstm_arch.bias_ih_l1 f4 [40]
000000 2b 30 1a be 74 a5 9a bc 49 3e 62 3e 72 bd ba 3d
       -0.15057437 -0.018877722 0.22094072 0.09118165
000010 c0 7a fa be 1d 8c 5a be bc c2 53 3e 99 f7 b9 be
       -0.48921776 -0.21342511 0.20679754 -0.36321715
000020 7b e1 a5 be cc e9 7c be ca f4 08 bd 7b f5 a2 be
       -0.3239859 -0.24698561 -0.033436574 -0.31827912
000030 9d c7 98 3e ae 99 a3 be 81 8b f6 be 82 c5 5d 3d
       0.29839793 -0.31953186 -0.48153308 0.054143436
000040 10 0e 7f 3c 58 f4 2c be 21 da 1f be 3e 03 62 3c
       0.015567318 -0.16890085 -0.15610553 0.013794718
000050 13 33 37 3d 78 66 60 3e a1 b5 be 3e 17 29 a6 3e
       0.044726443 0.21914089 0.37247947 0.32453224
000060 b7 53 30 be 67 17 b2 be 2e df 20 3d 75 35 8b 3b
       -0.17219435 -0.3478348 0.03927534 0.004248316
000070 2e 3f 38 be 89 db db bd d0 ce 5c be 1c b8 ac be
       -0.17992851 -0.107352324 -0.21563268 -0.33734214
000080 d4 c0 85 3e a0 58 11 be a7 e2 51 be 94 ac 58 be
       0.2612368 -0.14193964 -0.20496617 -0.21159583
000090 27 59 dd bd 80 1c 92 bd 65 bf 92 3d ad bf 1c 3e
       -0.1080802 -0.07134342 0.07165412 0.15307494

lstm_arch.bias_hh_l1 f4 [40]
000000 71 b7 bd 3d 22 58 64 be c7 cc 90 be 13 ec 9f be
       0.09263504 -0.22299245 -0.28281233 -0.31234798
000010 ca 66 d9 be c5 b5 44 3d a0 e7 95 be 7e 93 c8 bd
       -0.42461234 0.04802491 -0.29278278 -0.09793757
000020 b0 26 16 be 33 fd 9f 3c 6d 63 1e 3d 2f 2e 04 3e
       -0.14663196 0.019529914 0.03866904 0.12908243
000030 d4 ad e9 bd 4a 4b 78 bb 7b d1 f7 be 6b 10 9d 3c
       -0.11410108 -0.0037886673 -0.48402008 0.019172868
000040 f7 c5 5e be a9 0c ff bd e7 56 87 bc 1f ba ae 3d
       -0.21755205 -0.124535866 -0.01652093 0.085315935
000050 f7 3d 28 3e 06 04 97 be 60 86 80 3e 81 9b 9a 3e
       0.16429888 -0.29495257 0.2510252 0.30196765
000060 d3 24 ed 3d bc 22 d3 bd cf 36 4a be 76 64 75 3d
       0.11579289 -0.103093594 -0.1974747 0.05991026
000070 2e a5 6e 3e b2 a9 81 be 32 89 5c be 40 6d 6c 3e
       0.23305199 -0.2532478 -0.21536711 0.2308855
000080 c9 e9 8e 3d 92 53 39 3e 38 b3 aa be 1b 38 a3 3e
       0.06978185 0.18098286 -0.33339858 0.31878743
000090 97 e9 ca bd a1 60 0e bf f9 09 ab be 3f 39 1e 3d
       -0.09907835 -0.55616194 -0.33406046 0.038628813

rnn_arch.weight_ih_l0 f4 [10, 6]
000000 b3 1f 32 be a6 1a 08 bd 9c 96 42 bd bc 09 73 bd
       -0.17394905 -0.03322854 -0.047506914 -0.059335455
000010 c9 8e a1 3e c4 7b 4b be ae 8e 3b bd 4d f3 25 bb
       0.3155425 -0.19871432 -0.045790367 -0.002532202
000020 ed b2 73 be 35 7f 62 be a8 d6 57 be 7b 99 7d 3e
       -0.23798724 -0.22118838 -0.21077979 0.2476558
000030 bc 54 93 be c6 ca 60 be 23 a3 43 be c5 fd 8b be
       -0.28775585 -0.21952352 -0.191052 -0.27342048
000040 5d 66 b5 bc 7a 12 f1 bd 16 6b 28 bd d3 0e 9c 3e
       -0.022143537 -0.11771102 -0.04111775 0.3048006
000050 58 bc b3 3d 76 ab 67 3e 14 ce 17 be 4a 4e 72 be
       0.08776158 0.22624001 -0.14824706 -0.23662677
000060 cd 97 86 bd bb 53 53 3d d4 5f 7a be fc e7 fd 3a
       -0.065719225 0.051593523 -0.24450618 0.0019371505
000070 94 1b 02 be 1e c6 68 be e3 11 5b 3e fb 22 71 3c
       -0.12705833 -0.22731826 0.21393542 0.014717813
000080 53 d1 cb bd b9 2d 8e be 79 ea 81 be 68 1e 31 be
       -0.09952035 -0.2776926 -0.253742 -0.17296755
000090 6a 03 5a be f5 14 85 3c 27 7f 87 3e ac 6c 3c be
       -0.21290365 0.016245345 0.26464197 -0.1840083
0000a0 77 c5 8d 3e 7d 38 8d 3e b0 1b 85 be 7a c1 98 3d
       0.27689716 0.2758216 -0.25997686 0.07458778
0000b0 9b 50 a0 3e 0e b2 4e 3e 19 2d 8a 3d cb c3 d9 3b
       0.31311497 0.2018511 0.06746883 0.006645655
0000c0 61 60 41 be 1f bf c1 bd e3 39 8e be 6d 80 92 3e
       -0.18884422 -0.094602816 -0.2777854 0.28613606
0000d0 2d 40 50 be 7d 4b 76 3e af d7 42 3e 52 0a 9f be
       -0.20336981 0.24052234 0.1902759 -0.3106256
0000e0 b7 cb 96 be 9c 15 0d 3e 07 89 6a 3e 99 a5 9c 3e
       -0.29452297 0.13777775 0.22903834 0.3059509

rnn_arch.weight_hh_l0 f4 [10, 10]
000000 b1 d1 26 3d 5c 0a 65 3e 62 08 6f be 28 f2 05 bd
       0.04072732 0.22367233 -0.23343042 -0.03270164
000010 71 01 7b 3d 91 20 a0 3d ef 79 2f 3d 2d 22 9e 3d
       0.06128067 0.078187115 0.042840894 0.07721362
000020 6f 14 a0 be b7 3a 3a be cf 07 58 3e 80 28 28 3e
       -0.3126559 -0.1818646 0.21096729 0.164217
000030 59 7e 52 be 1d 45 de bd 45 ee 92 be 21 ba 41 be
       -0.2055601 -0.10853026 -0.2869741 -0.18918659
000040 7f 3b 12 be b7 34 c2 bd cb 04 96 3d aa 3e a6 3d
       -0.14280508 -0.09482711 0.07325133 0.08117421
000050 90 3c 5c 3e f9 69 a7 3d 3e fd d5 3d 92 b5 0d be
       0.21507478 0.081745096 0.10448693 -0.13838795
000060 aa a2 e2 bd 43 d4 ba bd 6a a3 52 3e 78 a2 b2 bd
       -0.11066182 -0.09122517 0.2057015 -0.08722395
000070 ef ba 20 3e 41 d7 9e be 7d 53 c5 3a 05 66 86 3e
       0.1569631 -0.310236 0.0015054789 0.2624971
000080 a9 cf 85 3e 69 19 50 3e b2 60 0c 3e 11 af 8f 3e
       0.26134995 0.20322193 0.13708761 0.28063253
000090 82 e2 97 be f9 9f 68 3e f5 60 3b 3e 1c a0 31 3e
       -0.29665 0.22717275 0.18298705 0.17346233
0000a0 9f 2d 32 3e 8b 1a 81 3c 6c 2d 7c 3e 4b 57 2d 3e
       0.17400216 0.015759727 0.24626702 0.16927831
0000b0 3c 53 4f bd 4b c7 94 be 99 7f 4e 3d 5d 0e 0d bd
       -0.050616488 -0.29058298 0.050414655 -0.034437526
0000c0 db 93 5b bc 16 32 20 be d0 3c 44 3e 2d 03 58 3e
       -0.013401951 -0.15644106 0.19163823 0.21094961
0000d0 ff a1 04 be 08 d3 17 be d8 8a 3b 3e 87 9e 04 3e
       -0.12952422 -0.14826596 0.18314683 0.12951098
0000e0 25 2f 37 be a1 07 ce bb ee 78 9a 3e 98 25 8e 3b
       -0.17889078 -0.0062875305 0.30170387 0.0043379776
0000f0 69 c5 28 be 48 c4 c8 3d 54 57 a1 3e b8 1e 81 be
       -0.16481556 0.09803063 0.3151194 -0.2521875
000100 6a b3 8c be e2 9b 3e bd ec 8c 96 3e 89 2a 9e 3d
       -0.27480632 -0.04653538 0.2940439 0.07722957
000110 16 36 68 3e 71 00 0f 3e aa a6 68 be a5 19 98 3e
       0.22676882 0.13965012 -0.22719827 0.29707065
000120 37 ba 77 3c a0 bd 1f bc 85 92 0f bb 41 36 be bc
       0.015120081 -0.0097498 -0.00219074 -0.02321923
000130 67 76 81 3e 73 1c c6 3c bd 6c 64 3e 4e 60 48 be
       0.25285646 0.024183488 0.22307105 -0.19567987
000140 e4 9a 7e be 60 95 64 3e 4b b1 8c bd 76 00 12 be
       -0.24863774 0.22322607 -0.068697535 -0.14257988
000150 5c e4 c2 bc f0 47 4c 3e 41 51 6f 3e 21 e3 73 3e
       -0.02379053 0.19949317 0.2337084 0.23817112
000160 ec 22 44 bd c4 8b 8c 3e 50 23 6a 3e f8 ea a6 bd
       -0.047884867 0.27450383 0.22865033 -0.081502855
000170 0d 53 60 be 62 43 ef 3d b2 22 8f bd a0 6c 14 be
       -0.21906681 0.11682774 -0.069890395 -0.14494562
000180 bb 28 99 3e 8f d0 37 be 65 ed 61 3e d2 ac ab bd
       0.29913887 -0.17950653 0.22063215 -0.08382572

rnn_arch.bias_ih_l0 f4 [10]
000000 5a 66 83 be 5e fd 9d 3e e9 45 99 be cf fc c2 bd
       -0.25664026 0.30857366 -0.2993615 -0.09520876
000010 28 fd c7 bd a1 61 03 3d 29 e5 18 be a2 49 dd 3d
       -0.097650826 0.032075528 -0.14931168 0.1080506
000020 bf be 96 3e ef 89 78 3d
       0.29442403 0.06067842

rnn_arch.bias_hh_l0 f4 [10]
000000 56 d3 22 3e e8 32 fa bd bf e0 92 bd 5e bd 2f 3d
       0.15900931 -0.12216741 -0.07171773 0.042905204
000010 35 7d 9e 3d b3 ab 8f 3d 8d 5a 39 3e 9f 4f 46 be
       0.07738725 0.07015171 0.18100949 -0.1936631
000020 ee 79 38 bc 19 17 28 3e
       -0.011259539 0.16415061

rnn_arch.weight_ih_l1 f4 [10, 10]
000000 06 30 64 be 22 cc 59 3d 7d 26 9b be 0d 2f 87 be
       -0.22283944 0.05317319 -0.30302802 -0.26403084
000010 fc df 91 be de d9 86 3e 7d ef 6c 3c 42 9d 20 be
       -0.284912 0.26338094 0.014461395 -0.15684989
000020 d1 05 a5 bd fb 03 94 be 1f 15 16 bd f6 08 4f be
       -0.0805775 -0.28909287 -0.036641236 -0.20218262
000030 89 18 66 bc aa af c4 3d 47 03 34 be d8 92 4d be
       -0.014043936 0.09603818 -0.17579375 -0.20075548
000040 bd 94 85 be ca 3f 0c be 7e 3c ea 3d 7d 0e 91 be
       -0.2609004 -0.13696209 0.11437319 -0.28331366
000050 48 7b 6d 3e 04 7d 5f be 3e eb 2c be ff 7d a1 bd
       0.2319156 -0.21825033 -0.16886613 -0.0788536
000060 af 83 9b 3e 26 62 36 be 9e d6 a7 bd db 83 e3 bd
       0.30373904 -0.17810878 -0.08195232 -0.11109134
000070 54 a1 75 3e 56 72 5e 3d a6 0c 02 be 2b ed 8d bd
       0.23987323 0.054308258 -0.12700137 -0.06930002
000080 04 b7 a7 3d 62 a8 4b be 22 f7 11 be bf 30 f9 3d
       0.08189204 -0.19888452 -0.1425443 0.12167501
000090 f5 42 2d 3e 3b 0a 7a 3e a2 b3 6f 3e 74 de 22 be
       0.16920073 0.24417965 0.23408368 -0.15905172
0000a0 77 a6 9d 3e 47 33 36 3d eb c7 98 3e 77 54 0b 3e
       0.30791065 0.044482496 0.29840025 0.1360644
0000b0 b2 7d ba 3c 63 7e 40 3e 81 16 33 3e 40 fb 91 be
       0.022765014 0.18798213 0.17489053 -0.28512
0000c0 e0 80 a3 3d dc 59 26 3e 53 72 8f bd a3 73 ad 3d
       0.07983565 0.16245216 -0.070042275 0.084693216
0000d0 db 46 5b bd 9b a2 03 be e6 8d 8d 3e 74 f4 53 bd
       -0.05353437 -0.12854998 0.27647322 -0.0517468
0000e0 40 e1 64 bd cf 87 1f be 96 03 24 be 98 a1 9a be
       -0.055878878 -0.1557915 -0.16016993 -0.3020141
0000f0 8a 13 4d be ee d6 50 be 8c 6d 48 be 75 b7 64 3e
       -0.20026985 -0.20394489 -0.19573039 0.22335608
000100 4e a9 c8 bb 71 66 b5 bc ee 68 e8 bd 07 e5 19 3e
       -0.0061236983 -0.022143574 -0.11348139 0.15028773
000110 65 3d bc 3c 19 6a f5 bd 9d 57 1c be 23 6e 88 3e
       0.022978494 -0.11983127 -0.15267797 0.26646528
000120 13 83 2a be 4d 33 89 3e f5 40 8d 3e 85 c4 e2 3d
       -0.16651563 0.26796952 0.2758862 0.110726394
000130 0e 99 7d 3e 09 d9 77 3e c3 7d 81 be ed a5 ec bd
       0.24765417 0.24203886 -0.2529126 -0.11555085
000140 9b a9 2f be ce 48 93 3e 76 e2 99 be 2b fc b7 bd
       -0.17154543 0.28766483 -0.30055588 -0.08983644
000150 00 80 4c be b8 19 25 be 0d 1f 8a 3e ff 0b 17 3e
       -0.19970703 -0.16123092 0.26976815 0.1475067
000160 db 9e 24 be 84 22 85 3d b3 9f b2 bd e6 6f 00 be
       -0.16076224 0.06500724 -0.087218665 -0.12542686
000170 35 98 52 3e 19 23 2f 3e 4e fc 9b 3e 45 be 34 be
       0.20565875 0.17103232 0.3046593 -0.17650707
000180 e9 2e b6 3d 78 e1 22 3e a4 ba bc bd 7b 90 33 3e
       0.08895666 0.15906322 -0.092152864 0.17535584

rnn_arch.weight_hh_l1 f4 [10, 10]
000000 d5 4d 63 3e f0 e0 9e 3e 0e 77 2a 3e b6 51 08 3d
       0.2219766 0.3103099 0.16646978 0.03328105
000010 98 ab 39 3e aa 93 62 3e e4 99 88 3c 43 7f 91 bd
       0.18131864 0.22126642 0.016674943 -0.07104351
000020 0a db 89 3e 7f 8a 8f bd db e1 b9 bd be b0 14 be
       0.26924926 -0.07008838 -0.09076282 -0.14520547
000030 06 99 82 bc 70 dc 5f be b9 cc 05 3d 38 81 85 be
       -0.015942108 -0.21861434 0.032665942 -0.2607515
000040 15 c2 3f 3e b6 e4 f8 3d 1a 7e e2 3c e2 72 da bd
       0.1872638 0.12152998 0.02764802 -0.106664434
000050 7c 64 9c 3e bc d8 84 bd 83 4a 49 be c3 59 da 3c
       0.30545413 -0.06486651 -0.1965733 0.02665413
000060 93 53 16 bd da be 85 bd f1 cb 8f 3e 81 df 59 3d
       -0.036700796 -0.06530543 0.28085282 0.053191666
000070 7b c7 73 be d0 a7 da 3d 0c a4 13 be 0f c2 d0 3d
       -0.23806565 0.10676539 -0.14418048 0.10193264
000080 e3 90 bd 3d ff f0 e0 bc 66 90 4e 3d b5 95 a0 3d
       0.092561506 -0.027458666 0.050430678 0.07841054
000090 81 ae 69 3e 2e 9d 93 bd 50 95 9c be 74 0a 7e 3e
       0.22820474 -0.07207714 -0.30582666 0.24808675
0000a0 32 7f ea 3d 74 00 73 be 85 9d 7b be d5 8a 76 3e
       0.11450042 -0.23730642 -0.24571808 0.24076398
0000b0 de da a7 bd 2a 28 58 be 45 c7 97 be b4 c6 8c be
       -0.081960425 -0.21109071 -0.29644218 -0.27495348
0000c0 f7 54 7b ba 89 cf 6d 3e f6 d7 aa bd 1a 96 87 be
       -0.0009587551 0.232237 -0.083419725 -0.26481706
0000d0 92 c5 17 be 5c d5 52 3e f2 8a 72 3e 63 3c 22 3e
       -0.14821461 0.20589203 0.23685816 0.15843348
0000e0 01 52 55 bc 5a c6 9a bd 62 e5 f8 3d bf 8e 1c 3d
       -0.01302004 -0.07557364 0.12153126 0.03822207
0000f0 ba d8 50 3e d2 6c 71 bb 08 18 17 be be 55 9a be
       0.20395175 -0.0036838544 -0.14755261 -0.3014354
000100 c6 7c d5 bd eb bb 3e be 1e a2 04 be b9 a4 71 be
       -0.10424189 -0.18626373 -0.12952468 -0.23597993
000110 c8 a3 3f be 05 40 3b bc 33 76 6b be db 5f be 3d
       -0.18714821 -0.011428838 -0.22994308 0.09295627
000120 bd 12 8d be 3f d8 8d 3e 95 c1 96 bd 00 51 69 3e
       -0.2755336 0.27704045 -0.073611416 0.22784805
000130 1c 90 0a be 9d 05 63 3e f9 e0 3a be 71 d4 22 3e
       -0.13531536 0.2217011 -0.18249883 0.15901352
000140 10 87 45 3e c8 97 dd 3d 3f 0a 3f 3e 97 9f 62 3e
       0.19289804 0.108199656 0.18656252 0.22131191
000150 13 08 92 3e 2a 1e 88 3e 4d b2 83 be 81 9b 97 bc
       0.28521785 0.26585513 -0.2572197 -0.018506767
000160 a1 c6 4e 3c 53 68 71 be 29 f3 78 bd 1e 92 7b 3e
       0.012620599 -0.23574953 -0.06077877 0.24567458
000170 17 74 9d bd cd 95 8f 3e d4 31 7f be 6f 86 92 be
       -0.07688158 0.28043976 -0.24921352 -0.2861819
000180 55 4a a1 3d 3b eb 3a 3d e2 33 2e be 50 0c 8b 3e
       0.07875506 0.04563449 -0.17011979 0.2715783

rnn_arch.bias_ih_l1 f4 [10]
000000 50 11 de bd 6c 5d aa 3d 4d 4c 6d bc 28 00 de bd
       -0.10843146 0.083186 -0.014483524 -0.108398736
000010 1b aa 35 be 25 d3 bb bd 20 ba 15 be 37 dd 83 3d
       -0.17740671 -0.09171132 -0.14621782 0.06438678
000020 9f 89 38 be 78 69 0d be
       -0.18021248 -0.13809764

rnn_arch.bias_hh_l1 f4 [10]
000000 1b 79 11 3e be 7c 7d bd d6 6c 18 be b7 ab 01 3e
       0.14206354 -0.06188654 -0.14885268 0.1266316
000010 6f be 8e be 6d 26 6d 3e cd 43 d3 bc 47 33 cc 3d
       -0.27879664 0.2315919 -0.025789166 0.09970718
000020 88 2e 84 be e4 f1 ba 3d
       -0.2581675 0.09128168

linear.weight f4 [1, 10]
000000 41 a4 a2 3e 05 79 1a be 5c ce 9d 3e 9f 9e 93 3e
       0.3176594 -0.15085228 0.30821502 0.28831956
000010 f7 c6 ea bc d0 63 db be 93 42 4a 3e 4c 9c 0f 3d
       -0.028659327 -0.42849588 0.19751959 0.035061166
000020 4d 6a 2a be 03 4a 0c be
       -0.16642113 -0.13700108

exp_avg f4 [40, 6]
000000 54 31 96 34 c8 4e 09 34 98 6d 33 34 e0 4f 55 b3
       2.7975568e-07 1.278778e-07 1.6710544e-07 -4.9665573e-08
000010 40 6f 39 b3 fa a2 8c b4 a0 49 6b b5 b4 8b 9f b5
       -4.317485e-08 -2.6195613e-07 -8.765146e-07 -1.1887082e-06
000020 94 29 96 b5 84 bc d7 b5 d4 35 d6 b5 74 88 11 b5
       -1.1187972e-06 -1.6073614e-06 -1.5959909e-06 -5.4215275e-07
000030 da 82 6a 37 8a 0e 6e 37 f7 40 73 37 63 41 78 37
       1.3977953e-05 1.4189291e-05 1.44990545e-05 1.4797176e-05
000040 56 01 7b 37 ce 53 ca 35 e4 40 77 35 04 f1 0b 35
       1.4961077e-05 1.5074563e-06 9.21091e-07 5.213226e-07
000050 98 e4 1e 35 c0 a3 d2 32 70 98 03 33 7a 8b fa b4
       5.9192234e-07 2.4521682e-08 3.0639455e-08 -4.666761e-07
000060 fe 9c 5d b6 74 41 73 b6 1c 4b 75 b6 78 b4 8a b6
       -3.3022948e-06 -3.624792e-06 -3.6551564e-06 -4.13373e-06
000070 9c 2a 8c b6 95 16 f5 b4 00 65 65 b6 0a 9a 69 b6
       -4.1772855e-06 -4.5651237e-07 -3.418245e-06 -3.4809368e-06
000080 9c f9 6c b6 3c 3a 77 b6 64 6b 79 b6 b2 00 41 b4
       -3.5312032e-06 -3.6839765e-06 -3.71664e-06 -1.7974779e-07
000090 72 8d 52 36 78 f9 33 36 28 1a 40 36 22 3f 18 36
       3.137477e-06 2.6818288e-06 2.8625454e-06 2.2686513e-06
0000a0 2c fc 1a 36 49 5c 59 b5 fa a8 3c b7 ea 8f 3a b7
       2.3094572e-06 -8.097309e-07 -1.1245016e-05 -1.11199715e-05
0000b0 4c ab 3d b7 00 a5 3d b7 df 4f 3f b7 da 25 34 b5
       -1.1305161e-05 -1.1303695e-05 -1.1403084e-05 -6.7110307e-07
0000c0 e0 59 36 33 00 4a 90 33 70 a8 8e 33 30 0c c8 33
       4.2456918e-08 6.718983e-08 6.643029e-08 9.3154426e-08
0000d0 e0 de d0 33 d0 8d 55 33 ec f1 89 b7 47 5e 8d b7
       9.7262955e-08 4.9721905e-08 -1.6444326e-05 -1.6852411e-05
0000e0 98 f9 8f b7 c1 f7 95 b7 2c 83 97 b7 f8 9a b7 b5
       -1.7163155e-05 -1.7877554e-05 -1.8061684e-05 -1.3679664e-06
0000f0 cc 91 46 35 d0 a5 21 35 b6 45 23 35 58 82 cf 34
       7.397291e-07 6.021846e-07 6.0823675e-07 3.8651592e-07
000100 94 a3 d3 34 b0 d7 51 b3 98 87 d5 35 0c 96 8e 35
       3.942083e-07 -4.885777e-08 1.59092e-06 1.0623494e-06
000110 f0 a0 9e 35 e0 d3 c4 34 a0 7e d8 34 a4 47 07 b5
       1.1818756e-06 3.6662004e-07 4.0325267e-07 -5.039567e-07
000120 80 6b 11 35 3a 8d 1b 35 7c 71 1c 35 67 5d 29 35
       5.417314e-07 5.794751e-07 5.827967e-07 6.3093324e-07
000130 26 a5 2b 35 e1 83 ec 33 fa cc 87 36 e1 c6 5c 36
       6.3942787e-07 1.1013595e-07 4.047176e-06 3.2898317e-06
000140 92 8a 5e 36 02 6c 0e 36 97 33 10 36 d0 cc 3c b4
       3.3161236e-06 2.1222518e-06 2.1487701e-06 -1.7583375e-07
000150 72 17 88 b7 37 16 8c b7 99 fa 8e b7 21 c6 95 b7
       -1.6223381e-05 -1.6699645e-05 -1.7044413e-05 -1.7854445e-05
000160 43 48 97 b7 02 f6 d5 b5 04 b9 d7 b6 5a 32 e9 b6
       -1.8034252e-05 -1.5941334e-06 -6.429038e-06 -6.949803e-06
000170 80 ea f0 b6 a5 26 08 b7 35 5d 09 b7 b8 ea 0c b5
       -7.1798568e-06 -8.115229e-06 -8.187538e-06 -5.2495625e-07
000180 36 1c 54 36 ee 7a 29 36 44 d7 2b 36 9f 83 d5 35
       3.1606883e-06 2.5254517e-06 2.5606287e-06 1.5908043e-06
000190 bc 4e d9 35 ba 00 be b4 84 30 d6 b7 90 e5 d6 b7
       1.6190675e-06 -3.5390786e-07 -2.553338e-05 -2.5617686e-05
0001a0 e9 79 da b7 55 09 dd b7 fb 1a df b7 22 92 26 b6
       -2.6044394e-05 -2.6349599e-05 -2.6596235e-05 -2.4820988e-06
0001b0 40 2d a5 33 c6 68 b4 33 d6 93 af 33 4c 90 c3 33
       7.691642e-08 8.400961e-08 8.175964e-08 9.1066426e-08
0001c0 d1 4a c6 33 29 7b f2 32 b0 9f ef b7 a8 fc f4 b7
       9.2337025e-08 2.8228515e-08 -2.856538e-05 -2.9204719e-05
0001d0 b4 67 f9 b7 b8 4c 01 b8 01 9b 02 b8 aa f9 38 b6
       -2.9731404e-05 -3.0827447e-05 -3.1138774e-05 -2.756346e-06
0001e0 48 bb 56 b5 84 4c 4c 35 18 b3 19 35 94 62 41 36
       -7.999374e-07 7.6107267e-07 5.725756e-07 2.881662e-06
0001f0 d0 93 40 36 26 91 00 36 1e 9e 98 36 34 e9 ba 36
       2.8696268e-06 1.9157974e-06 4.5483603e-06 5.5703804e-06
000200 c8 32 b3 36 66 ed e5 36 da 5d e5 36 36 45 01 36
       5.3405274e-06 6.8523686e-06 6.8356576e-06 1.9262784e-06
000210 fc 05 44 39 ab 01 4a 39 0a 9c 4d 39 a0 76 56 39
       0.00018694246 0.00019264843 0.00019608453 0.00020452822
000220 b2 d2 58 39 76 55 ac 37 f8 cb 87 b6 50 48 6f 35
       0.00020677855 2.0543794e-05 -4.0470586e-06 8.9139667e-07
000230 e0 d8 50 35 16 e7 08 37 9b 67 09 37 1a fa 85 36
       7.7801633e-07 8.160036e-06 8.189959e-06 3.9928245e-06
000240 60 26 eb 38 74 5a fa 38 a8 ba ff 38 8d 5b 0b 39
       0.00011212821 0.00011937777 0.00012194115 0.00013290178
000250 ce e4 0c 39 12 6d 57 37 50 2a 3e 38 4c 3c 65 38
       0.00013436677 1.28403935e-05 4.5338937e-05 5.465401e-05
000260 1c ee 6a 38 d6 92 93 38 66 0f 95 38 18 af 08 37
       5.6011704e-05 7.0368566e-05 7.107742e-05 8.146999e-06
000270 8e fa cb b7 40 41 a2 b7 3d 1b aa b7 d8 24 60 b7
       -2.431616e-05 -1.934229e-05 -2.0278263e-05 -1.3360019e-05
000280 f8 ff 64 b7 c4 f6 b7 36 73 e3 44 39 2c 12 4c 39
       -1.3649456e-05 5.4825523e-06 0.00018776748 0.00019461726
000290 4c 1a 50 39 62 27 5b 39 e6 80 5d 39 4a 5d a2 37
       0.00019846222 0.00020900139 0.00021124221 1.9355346e-05
0002a0 a8 15 c9 b4 44 a7 02 b5 ec 30 02 b5 dc 16 25 b5
       -3.7454924e-07 -4.867218e-07 -4.8499965e-07 -6.1500555e-07
0002b0 a4 93 2a b5 61 15 53 b4 76 60 f1 b8 c8 df f8 b8
       -6.354478e-07 -1.9658684e-07 -0.00011509743 -0.00011867244
0002c0 64 5e fd b8 62 c6 04 b9 8b 2e 06 b9 7a 67 3d b7
       -0.00012081562 -0.00012662404 -0.00012796574 -1.128937e-05
0002d0 ec 4f 0a 35 00 8e 4d 34 10 53 61 34 c0 93 bf b4
       5.152531e-07 1.9143772e-07 2.0984976e-07 -3.5684025e-07
0002e0 d8 ff b9 b4 b4 0d 21 b4 66 0b 80 36 0c 74 3b 36
       -3.4645086e-07 -1.4999279e-07 3.816024e-06 2.793272e-06
0002f0 fc eb 44 36 f0 1f 9d 35 48 18 a6 35 60 eb 00 b3
       2.9343637e-06 1.1706707e-06 1.237503e-06 -3.0016395e-08
000300 88 ad 31 37 00 e0 34 37 aa ee 38 37 b2 54 3d 37
       1.05904255e-05 1.078099e-05 1.1022823e-05 1.12849975e-05
000310 66 76 3f 37 97 02 9d 35 c0 fa a2 35 86 79 25 35
       1.1412054e-05 1.1698165e-06 1.2142918e-06 6.164413e-07
000320 77 d3 3a 35 ac 16 6c b4 d0 4c 61 b4 e5 00 cd b4
       6.959812e-07 -2.1987461e-07 -2.0982702e-07 -3.8184876e-07
000330 10 47 75 b6 86 32 8d b6 0a c1 8e b6 62 38 ac b6
       -3.6549209e-06 -4.208009e-06 -4.2544025e-06 -5.1325633e-06
000340 dc b5 ad b6 6a 3b 29 b5 62 14 7b b6 bf 9e 85 b6
       -5.176973e-06 -6.3043865e-07 -3.741378e-06 -3.9821894e-06
000350 f1 ef 87 b6 f9 08 97 b6 6e 44 98 b6 b0 f9 65 b4
       -4.0512464e-06 -4.5011952e-06 -4.5379193e-06 -2.1418123e-07
000360 18 2e 8c 35 78 53 c7 34 c8 23 e7 34 2c 05 36 b5
       1.0444228e-06 3.712737e-07 4.3053137e-07 -6.780781e-07
000370 84 0c 31 b5 08 3f e6 b4 56 86 cb b6 c6 2c cd b6
       -6.595585e-07 -4.28867e-07 -6.06551e-06 -6.1146884e-06
000380 8b b5 d1 b6 de fb d9 b6 6a c7 db b6 6d 71 00 b5
       -6.2498198e-06 -6.496425e-06 -6.5499235e-06 -4.784877e-07
000390 80 dd 5b 33 10 08 bd 33 f8 b7 b6 33 34 78 0a 34
       5.1191364e-08 8.802465e-08 8.508499e-08 1.2895981e-07
0003a0 d0 5a 0f 34 e0 f1 86 33 88 8b 1a b7 35 cc 2a b7
       1.335095e-07 6.283858e-08 -9.211602e-06 -1.0180335e-05
0003b0 1b 82 2d b7 f8 fa 46 b7 ca c8 48 b7 be 49 ae b5
       -1.0341896e-05 -1.1860153e-05 -1.1967679e-05 -1.2985472e-06
