pytorch_lightning/experiment_framework/results/exp_0/lightning_logs/version_0/checkpoints/epoch=49-step=4000.ckpt (torch, 16771 bytes, 25 tensors)

lstm_arch.weight_ih_l0 f4 [4, 6]
0	0x3ee2c0c1	0.44287685
1	0x3f569a19	0.83828884
2	0x3f50ee22	0.8161336
3	0x3f1e795b	0.61903924
4	0x3f27186f	0.6527166
5	0x3f1bc4a7	0.6084694
6	0xbe839ac0	-0.25704002
7	0xbed7ef9b	-0.42174992
8	0xbcaa1ee4	-0.020766683
9	0x3f97cf51	1.1860143
10	0x3f26c793	0.65148276
11	0x3fb902ba	1.4453957
12	0x3f89a644	1.0753865
13	0x3e79d0f3	0.24396114
14	0x3f440bd5	0.76580554
15	0x3f856139	1.0420295
16	0xbebac0f0	-0.36475325
17	0xbe4df6e0	-0.20113707
18	0x3f8b38b3	1.0876678
19	0x3f48f02b	0.7849147
20	0x3f627917	0.8846602
21	0x3f22d2e5	0.6360305
22	0x3e55a41a	0.20863381
23	0xbeeb4f21	-0.45958808

lstm_arch.weight_hh_l0 f4 [4, 1]
0	0x3f19e6a3	0.6011755
1	0xbe2bd4c6	-0.16780385
2	0xbd7d7661	-0.061880473
3	0x3d5ff8cd	0.054680634

lstm_arch.bias_ih_l0 f4 [4]
0	0x3f693589	0.91097313
1	0xbf726563	-0.94685954
2	0x3f249533	0.6429016
3	0xbf7ba3e7	-0.9829697

lstm_arch.bias_hh_l0 f4 [4]
0	0x3e5d1ef4	0.21593839
1	0xbdb344b2	-0.08753337
2	0xbf1754d9	-0.5911384
3	0xbf939b70	-1.1531811

lstm_arch.weight_ih_l1 f4 [4, 1]
0	0xbf1fe637	-0.62460655
1	0xbd5ee92e	-0.054421596
2	0xbf9df9ae	-1.2341821
3	0x3e836d82	0.25669485

lstm_arch.weight_hh_l1 f4 [4, 1]
0	0xbdb1f1fe	-0.086887345
1	0x3e2b1525	0.16707285
2	0xbf4f3254	-0.8093617
3	0x3e05d66b	0.13070075

lstm_arch.bias_ih_l1 f4 [4]
0	0x3e8399a9	0.2570317
1	0x3f6e76a3	0.93149775
2	0x3f37c2cc	0.7178161
3	0x3f05113b	0.51979417

lstm_arch.bias_hh_l1 f4 [4]
0	0x3f2e1a4b	0.6800887
1	0x3f4ca73b	0.79942673
2	0xbd8d172b	-0.068891846
3	0x3e092e5f	0.13396595

rnn_arch.weight_ih_l0 f4 [1, 6]
0	0xbf26b9e2	-0.65127385
1	0xbece9bd0	-0.4035325
2	0xbf17a5cc	-0.5923736
3	0x3e755f80	0.23962212
4	0xbeda31bc	-0.4261607
5	0xbd98d060	-0.074616194

exp_avg f4 [4, 6]
0	0x36a12874	4.8028833e-06
1	0x369dd556	4.7038e-06
2	0x36999560	4.577145e-06
3	0x3697ae00	4.520407e-06
4	0x36982cac	4.5351535e-06
5	0x35a82831	1.2528673e-06
6	0xb8fe31b2	-0.0001212092
7	0xb901d123	-0.00012380308
8	0xb90690f1	-0.0001283323
9	0xb909c14a	-0.00013137344
10	0xb90b5847	-0.00013288959
11	0xb5b9d880	-1.3846584e-06
12	0x38019fa4	3.0904674e-05
13	0x37fe5ce4	3.0322415e-05
14	0x37fc4001	3.0070545e-05
15	0x37f959b7	2.972489e-05
16	0x37face35	2.9898345e-05
17	0x36befbb2	5.6917424e-06
18	0xb8e81c50	-0.00011067896
19	0xb90c7af0	-0.00013397238
20	0xb91bb4d0	-0.0001484931
21	0xb9354d38	-0.00017290271
22	0xb9384b58	-0.00017575675
23	0x38136404	3.5140678e-05

exp_avg_sq f4 [4, 6]
0	0x3281594e	1.5058188e-08
1	0x32808866	1.4963188e-08
2	0x3281422a	1.5047664e-08
3	0x3283255d	1.5267398e-08
4	0x32814ef4	1.505348e-08
5	0x31dfc8d6	6.5129866e-09
6	0x35b96435	1.3812738e-06
7	0x35b7ff4b	1.3708863e-06
8	0x35b959c2	1.3809697e-06
9	0x35bb446c	1.3952499e-06
10	0x35ba7a90	1.389375e-06
11	0x34560e01	1.9935398e-07
12	0x35ac8992	1.2855037e-06
13	0x35ac2303	1.2825188e-06
14	0x35ac4bb5	1.2837032e-06
15	0x35afbc9f	1.3093412e-06
16	0x35acdd76	1.2879452e-06
17	0x35c2e449	1.4520566e-06
18	0x381df9e5	3.766445e-05
19	0x381d1207	3.7448506e-05
20	0x381d3959	3.7485126e-05
21	0x381f6ef0	3.8011873e-05
22	0x381e1f5a	3.7699334e-05
23	0x3719304c	9.130756e-06

exp_avg f4 [4, 1]
0	0x368ad89c	4.137937e-06
1	0xb8b1696c	-8.459654e-05
2	0x37bfdd1a	2.2871933e-05
3	0xb834e300	-4.3126754e-05

exp_avg_sq f4 [4, 1]
0	0x318081f2	3.7400634e-09
1	0x3550467b	7.75886e-07
2	0x349ab450	2.881593e-07
3	0x37a7e1f5	2.001317e-05

exp_avg f4 [4]
0	0x371bf9ec	9.296909e-06
1	0xb8285dd8	-4.014172e-05
2	0x3846c80c	4.7393187e-05
3	0x399ef490	0.00030318322

exp_avg_sq f4 [4]
0	0x3392db89	6.838588e-08
1	0x36549b5d	3.1680895e-06
2	0x373e446c	1.1340813e-05
3	0x38c8a065	9.566619e-05

exp_avg f4 [4]
0	0x371bf9ec	9.296909e-06
1	0xb8285dd8	-4.014172e-05
2	0x3846c80c	4.7393187e-05
3	0x399ef490	0.00030318322

exp_avg_sq f4 [4]
0	0x3392db89	6.838588e-08
1	0x36549b5d	3.1680895e-06
2	0x373e446c	1.1340813e-05
3	0x38c8a065	9.566619e-05

exp_avg f4 [4, 1]
0	0xb9a1e1d6	-0.00030876574
1	0xb98fbe0a	-0.00027416676
2	0x3b0e9e84	0.0021761963
3	0xb996210a	-0.00028634846

exp_avg_sq f4 [4, 1]
0	0x3560ae8e	8.3700513e-07
1	0x352575c5	6.1638667e-07
2	0x39d63220	0.00040854607
3	0x357ba4bd	9.374451e-07

exp_avg f4 [4, 1]
0	0x38936a58	7.029314e-05
1	0x389a4356	7.3558345e-05
2	0xba848a9f	-0.0010112113
3	0x38c6a1ff	9.47155e-05

exp_avg_sq f4 [4, 1]
0	0x3502a537	4.8669193e-07
1	0x3588c94a	1.0191372e-06
2	0x38aa2404	8.11294e-05
3	0x369fa38d	4.757609e-06

exp_avg f4 [4]
0	0xb9d1972d	-0.0003997622
1	0xb9b18b16	-0.00033863698
2	0x3aaadf30	0.0013036486
3	0xb9b7c6ef	-0.00035052697

exp_avg_sq f4 [4]
0	0x36faf355	7.478908e-06
1	0x3718e7d4	9.113883e-06
2	0x3af23918	0.001848015
3	0x37ec9d9b	2.8206783e-05

exp_avg f4 [4]
0	0xb9d1972d	-0.0003997622
1	0xb9b18b16	-0.00033863698
2	0x3aaadf30	0.0013036486
3	0xb9b7c6ef	-0.00035052697

exp_avg_sq f4 [4]
0	0x36faf355	7.478908e-06
1	0x3718e7d4	9.113883e-06
2	0x3af23918	0.001848015
3	0x37ec9d9b	2.8206783e-05
