pytorch_lightning/experiment_framework/results/exp_0/lightning_logs/version_1/checkpoints/epoch=49-step=4000.ckpt (torch, 16771 bytes, 25 tensors)

lstm_arch.weight_ih_l0 f4 [4, 6]
0	0xbe753a4d	-0.23948021
1	0x3f01d22f	0.5071134
2	0xbe90f9d0	-0.28315592
3	0x3eca291c	0.3948449
4	0x3ee859b7	0.45380947
5	0x3f11c63a	0.56943095
6	0xbf1b67d1	-0.60705286
7	0x3ed4b106	0.41541308
8	0x3d226c4e	0.03965407
9	0x3fa0211b	1.2510103
10	0x3f9bcf3e	1.217262
11	0xbf20fea8	-0.62888575
12	0xbc902b8d	-0.017598892
13	0xbf4889a0	-0.78335
14	0xbf47efdd	-0.7810038
15	0xbf8ee9a5	-1.1165053
16	0xbea0880c	-0.31353796
17	0x3dca6466	0.09882431
18	0x3f16aac9	0.5885435
19	0x3f2b556e	0.6692723
20	0x3f6bcf39	0.9211307
21	0x3fb6c30c	1.4278274
22	0xbde5774f	-0.11204397
23	0x3e0eebdb	0.13957159

lstm_arch.weight_hh_l0 f4 [4, 1]
0	0x3f427264	0.75955796
1	0x3e00d5cb	0.12581556
2	0xbed52ff1	-0.4163814
3	0x3ebdf8bd	0.37103835

lstm_arch.bias_ih_l0 f4 [4]
0	0x3ebc4ca1	0.36777213
1	0x3e97b99c	0.29633796
2	0xbf4910a0	-0.7854099
3	0xbf7cdc26	-0.9877342

lstm_arch.bias_hh_l0 f4 [4]
0	0xbcc87783	-0.02447105
1	0xbf4ff6d3	-0.81236
2	0x3f3f8c8c	0.7482383
3	0xbf83bbbf	-1.029167

lstm_arch.weight_ih_l1 f4 [4, 1]
0	0x3ebf5ad5	0.37373987
1	0x3f8da2d1	1.1065313
2	0xbf8bceb8	-1.092246
3	0x3e95f2ef	0.29286906

lstm_arch.weight_hh_l1 f4 [4, 1]
0	0xbf118a69	-0.5685182
1	0x3e8e9b36	0.27852792
2	0x3e875bfd	0.2643737
3	0x3df39d89	0.11895282

lstm_arch.bias_ih_l1 f4 [4]
0	0x3f35efc3	0.7106897
1	0xbe89499d	-0.26813975
2	0xbf3412ad	-0.70340997
3	0x3f8dc683	1.1076206

lstm_arch.bias_hh_l1 f4 [4]
0	0x3f7de75d	0.9918116
1	0xbe6ad29c	-0.22931904
2	0x3de4ab92	0.11165537
3	0xbe9679d2	-0.29389817

rnn_arch.weight_ih_l0 f4 [1, 6]
0	0xbf270598	-0.6524291
1	0xbf7cbcba	-0.98725474
2	0xbe3a7478	-0.18208492
3	0x3f46ca10	0.7765207
4	0xbf1b21ac	-0.60598254
5	0x3efafbc4	0.49020207

exp_avg f4 [4, 6]
0	0xb8badb4c	-8.9100184e-05
1	0xb8b8c773	-8.810954e-05
2	0xb8c1eae8	-9.246712e-05
3	0xb8c0fc86	-9.2023096e-05
4	0xb8c3b322	-9.331691e-05
5	0x371fcb74	9.524509e-06
6	0xb7d9312c	-2.5891313e-05
7	0xb7ddb8b8	-2.643127e-05
8	0xb7fa2f88	-2.9824456e-05
9	0xb7ff8710	-3.0461262e-05
10	0xb802e9ec	-3.1212272e-05
11	0x3765092c	1.3651599e-05
12	0xb7138db7	-8.794878e-06
13	0xb711d8e2	-8.6931705e-06
14	0xb70c1d96	-8.351539e-06
15	0xb70b71ff	-8.311587e-06
16	0xb70ae6d9	-8.279189e-06
17	0xb641de88	-2.8888771e-06
18	0xba6022a6	-0.0008550085
19	0xba631b67	-0.0008663446
20	0xba6b024a	-0.00089648797
21	0xba7079fe	-0.00091734517
22	0xba732534	-0.0009275258
23	0x38023dc8	3.1051954e-05

exp_avg_sq f4 [4, 6]
0	0x35cf066b	1.542457e-06
1	0x35cdcb5d	1.5332877e-06
2	0x35ce2551	1.5359057e-06
3	0x35d10ef9	1.5576071e-06
4	0x35cf06c3	1.542467e-06
5	0x34b61c56	3.392076e-07
6	0x35c7cc60	1.4886136e-06
7	0x35c68525	1.47909e-06
8	0x35c66ec9	1.4784392e-06
9	0x35c95c5e	1.5002549e-06
10	0x35c6ed52	1.4821219e-06
11	0x34e6793d	4.292905e-07
12	0x3659a229	3.242991e-06
13	0x3658c33d	3.2300152e-06
14	0x3657f2cd	3.2178825e-06
15	0x365c4146	3.2820549e-06
16	0x3657e8b3	3.2172945e-06
17	0x36390924	2.7572469e-06
18	0x37ec3dd7	2.8162189e-05
19	0x37ea6a8e	2.7944592e-05
20	0x37eb0580	2.8016744e-05
21	0x37ed91ba	2.832046e-05
22	0x37ec2e6a	2.8155006e-05
23	0x3692cee8	4.375226e-06

exp_avg f4 [4, 1]
0	0x38307b7e	4.207668e-05
1	0x37690208	1.3888355e-05
2	0x36df1c6f	6.649228e-06
3	0x3a20eeea	0.00061391166

exp_avg_sq f4 [4, 1]
0	0x350cf825	5.251516e-07
1	0x354474cc	7.318565e-07
2	0x35885082	1.015622e-06
3	0x37817f21	1.5437197e-05

exp_avg f4 [4]
0	0xb8700d66	-5.7232937e-05
1	0x3720e080	9.589014e-06
2	0xb72422c9	-9.783261e-06
3	0xba1e387d	-0.0006035639

exp_avg_sq f4 [4]
0	0x36948a12	4.426817e-06
1	0x369e6f27	4.721707e-06
2	0x37adf0ba	2.0735304e-05
3	0x388d572f	6.739643e-05

exp_avg f4 [4]
0	0xb8700d66	-5.7232937e-05
1	0x3720e080	9.589014e-06
2	0xb72422c9	-9.783261e-06
3	0xba1e387d	-0.0006035639

exp_avg_sq f4 [4]
0	0x36948a12	4.426817e-06
1	0x369e6f27	4.721707e-06
2	0x37adf0ba	2.0735304e-05
3	0x388d572f	6.739643e-05

exp_avg f4 [4, 1]
0	0x39dcb944	0.00042099704
1	0x39bab5ea	0.0003561222
2	0x3ba8888c	0.005143231
3	0x3a443b16	0.0007485611

exp_avg_sq f4 [4, 1]
0	0x354bbe31	7.590016e-07
1	0x356ee7df	8.8999326e-07
2	0x39e13a4b	0.00042958776
3	0x362e2e18	2.595485e-06

exp_avg f4 [4, 1]
0	0xb8a55d28	-7.885165e-05
1	0xb89d5027	-7.501273e-05
2	0xbaac1ee0	-0.001313176
3	0xb91e2df4	-0.00015085173

exp_avg_sq f4 [4, 1]
0	0x3502f5ef	4.8786654e-07
1	0x3634bcc4	2.6931966e-06
2	0x38812628	6.1583065e-05
3	0x36d68e36	6.3942525e-06

exp_avg f4 [4]
0	0xba1345c8	-0.0005618003
1	0xb9f24777	-0.00046211082
2	0xbbb9f91f	-0.0056754495
3	0xba8189e6	-0.0009883016

exp_avg_sq f4 [4]
0	0x36bd5253	5.6422227e-06
1	0x37a80f4e	2.0034287e-05
2	0x3aec2571	0.001801653
3	0x38453b35	4.70236e-05

exp_avg f4 [4]
0	0xba1345c8	-0.0005618003
1	0xb9f24777	-0.00046211082
2	0xbbb9f91f	-0.0056754495
3	0xba8189e6	-0.0009883016

exp_avg_sq f4 [4]
0	0x36bd5253	5.6422227e-06
1	0x37a80f4e	2.0034287e-05
2	0x3aec2571	0.001801653
3	0x38453b35	4.70236e-05
